{"class_name": "Model", "config": {"name": "model_2", "layers": [{"name": "input_3", "class_name": "InputLayer", "config": {"batch_input_shape": [null, 256, 64, 1], "dtype": "float32", "sparse": false, "name": "input_3"}, "inbound_nodes": []}, {"name": "conv2d_115", "class_name": "Conv2D", "config": {"name": "conv2d_115", "trainable": true, "dtype": "float32", "filters": 8, "kernel_size": [3, 3], "strides": [1, 1], "padding": "same", "data_format": "channels_last", "dilation_rate": [1, 1], "activation": "linear", "use_bias": true, "kernel_initializer": {"class_name": "VarianceScaling", "config": {"scale": 2.0, "mode": "fan_in", "distribution": "truncated_normal", "seed": null, "dtype": "float32"}}, "bias_initializer": {"class_name": "Zeros", "config": {"dtype": "float32"}}, "kernel_regularizer": null, "bias_regularizer": null, "activity_regularizer": null, "kernel_constraint": null, "bias_constraint": null}, "inbound_nodes": [[["input_3", 0, 0, {}]]]}, {"name": "batch_normalization_113", "class_name": "BatchNormalization", "config": {"name": "batch_normalization_113", "trainable": true, "dtype": "float32", "axis": [3], "momentum": 0.99, "epsilon": 0.001, "center": true, "scale": true, "beta_initializer": {"class_name": "Zeros", "config": {"dtype": "float32"}}, "gamma_initializer": {"class_name": "Ones", "config": {"dtype": "float32"}}, "moving_mean_initializer": {"class_name": "Zeros", "config": {"dtype": "float32"}}, "moving_variance_initializer": {"class_name": "Ones", "config": {"dtype": "float32"}}, "beta_regularizer": null, "gamma_regularizer": null, "beta_constraint": null, "gamma_constraint": null}, "inbound_nodes": [[["conv2d_115", 0, 0, {}]]]}, {"name": "leaky_re_lu_113", "class_name": "LeakyReLU", "config": {"name": "leaky_re_lu_113", "trainable": true, "dtype": "float32", "alpha": 0.20000000298023224}, "inbound_nodes": [[["batch_normalization_113", 0, 0, {}]]]}, {"name": "conv2d_116", "class_name": "Conv2D", "config": {"name": "conv2d_116", "trainable": true, "dtype": "float32", "filters": 17, "kernel_size": [3, 3], "strides": [1, 1], "padding": "same", "data_format": "channels_last", "dilation_rate": [1, 1], "activation": "linear", "use_bias": true, "kernel_initializer": {"class_name": "VarianceScaling", "config": {"scale": 2.0, "mode": "fan_in", "distribution": "truncated_normal", "seed": null, "dtype": "float32"}}, "bias_initializer": {"class_name": "Zeros", "config": {"dtype": "float32"}}, "kernel_regularizer": null, "bias_regularizer": null, "activity_regularizer": null, "kernel_constraint": null, "bias_constraint": null}, "inbound_nodes": [[["leaky_re_lu_113", 0, 0, {}]]]}, {"name": "batch_normalization_114", "class_name": "BatchNormalization", "config": {"name": "batch_normalization_114", "trainable": true, "dtype": "float32", "axis": [3], "momentum": 0.99, "epsilon": 0.001, "center": true, "scale": true, "beta_initializer": {"class_name": "Zeros", "config": {"dtype": "float32"}}, "gamma_initializer": {"class_name": "Ones", "config": {"dtype": "float32"}}, "moving_mean_initializer": {"class_name": "Zeros", "config": {"dtype": "float32"}}, "moving_variance_initializer": {"class_name": "Ones", "config": {"dtype": "float32"}}, "beta_regularizer": null, "gamma_regularizer": null, "beta_constraint": null, "gamma_constraint": null}, "inbound_nodes": [[["conv2d_116", 0, 0, {}]]]}, {"name": "leaky_re_lu_114", "class_name": "LeakyReLU", "config": {"name": "leaky_re_lu_114", "trainable": true, "dtype": "float32", "alpha": 0.20000000298023224}, "inbound_nodes": [[["batch_normalization_114", 0, 0, {}]]]}, {"name": "conv2d_117", "class_name": "Conv2D", "config": {"name": "conv2d_117", "trainable": true, "dtype": "float32", "filters": 26, "kernel_size": [3, 3], "strides": [1, 1], "padding": "same", "data_format": "channels_last", "dilation_rate": [1, 1], "activation": "linear", "use_bias": true, "kernel_initializer": {"class_name": "VarianceScaling", "config": {"scale": 2.0, "mode": "fan_in", "distribution": "truncated_normal", "seed": null, "dtype": "float32"}}, "bias_initializer": {"class_name": "Zeros", "config": {"dtype": "float32"}}, "kernel_regularizer": null, "bias_regularizer": null, "activity_regularizer": null, "kernel_constraint": null, "bias_constraint": null}, "inbound_nodes": [[["leaky_re_lu_114", 0, 0, {}]]]}, {"name": "batch_normalization_115", "class_name": "BatchNormalization", "config": {"name": "batch_normalization_115", "trainable": true, "dtype": "float32", "axis": [3], "momentum": 0.99, "epsilon": 0.001, "center": true, "scale": true, "beta_initializer": {"class_name": "Zeros", "config": {"dtype": "float32"}}, "gamma_initializer": {"class_name": "Ones", "config": {"dtype": "float32"}}, "moving_mean_initializer": {"class_name": "Zeros", "config": {"dtype": "float32"}}, "moving_variance_initializer": {"class_name": "Ones", "config": {"dtype": "float32"}}, "beta_regularizer": null, "gamma_regularizer": null, "beta_constraint": null, "gamma_constraint": null}, "inbound_nodes": [[["conv2d_117", 0, 0, {}]]]}, {"name": "conv2d_114", "class_name": "Conv2D", "config": {"name": "conv2d_114", "trainable": true, "dtype": "float32", "filters": 51, "kernel_size": [1, 1], "strides": [1, 1], "padding": "same", "data_format": "channels_last", "dilation_rate": [1, 1], "activation": "linear", "use_bias": true, "kernel_initializer": {"class_name": "VarianceScaling", "config": {"scale": 2.0, "mode": "fan_in", "distribution": "truncated_normal", "seed": null, "dtype": "float32"}}, "bias_initializer": {"class_name": "Zeros", "config": {"dtype": "float32"}}, "kernel_regularizer": null, "bias_regularizer": null, "activity_regularizer": null, "kernel_constraint": null, "bias_constraint": null}, "inbound_nodes": [[["input_3", 0, 0, {}]]]}, {"name": "leaky_re_lu_115", "class_name": "LeakyReLU", "config": {"name": "leaky_re_lu_115", "trainable": true, "dtype": "float32", "alpha": 0.20000000298023224}, "inbound_nodes": [[["batch_normalization_115", 0, 0, {}]]]}, {"name": "batch_normalization_112", "class_name": "BatchNormalization", "config": {"name": "batch_normalization_112", "trainable": true, "dtype": "float32", "axis": [3], "momentum": 0.99, "epsilon": 0.001, "center": true, "scale": true, "beta_initializer": {"class_name": "Zeros", "config": {"dtype": "float32"}}, "gamma_initializer": {"class_name": "Ones", "config": {"dtype": "float32"}}, "moving_mean_initializer": {"class_name": "Zeros", "config": {"dtype": "float32"}}, "moving_variance_initializer": {"class_name": "Ones", "config": {"dtype": "float32"}}, "beta_regularizer": null, "gamma_regularizer": null, "beta_constraint": null, "gamma_constraint": null}, "inbound_nodes": [[["conv2d_114", 0, 0, {}]]]}, {"name": "concatenate_26", "class_name": "Concatenate", "config": {"name": "concatenate_26", "trainable": true, "dtype": "float32", "axis": -1}, "inbound_nodes": [[["leaky_re_lu_113", 0, 0, {}], ["leaky_re_lu_114", 0, 0, {}], ["leaky_re_lu_115", 0, 0, {}]]]}, {"name": "leaky_re_lu_112", "class_name": "LeakyReLU", "config": {"name": "leaky_re_lu_112", "trainable": true, "dtype": "float32", "alpha": 0.20000000298023224}, "inbound_nodes": [[["batch_normalization_112", 0, 0, {}]]]}, {"name": "add_38", "class_name": "Add", "config": {"name": "add_38", "trainable": true, "dtype": "float32"}, "inbound_nodes": [[["concatenate_26", 0, 0, {}], ["leaky_re_lu_112", 0, 0, {}]]]}, {"name": "max_pooling2d_10", "class_name": "MaxPooling2D", "config": {"name": "max_pooling2d_10", "trainable": true, "dtype": "float32", "pool_size": [2, 2], "padding": "valid", "strides": [2, 2], "data_format": "channels_last"}, "inbound_nodes": [[["add_38", 0, 0, {}]]]}, {"name": "conv2d_119", "class_name": "Conv2D", "config": {"name": "conv2d_119", "trainable": true, "dtype": "float32", "filters": 17, "kernel_size": [3, 3], "strides": [1, 1], "padding": "same", "data_format": "channels_last", "dilation_rate": [1, 1], "activation": "linear", "use_bias": true, "kernel_initializer": {"class_name": "VarianceScaling", "config": {"scale": 2.0, "mode": "fan_in", "distribution": "truncated_normal", "seed": null, "dtype": "float32"}}, "bias_initializer": {"class_name": "Zeros", "config": {"dtype": "float32"}}, "kernel_regularizer": null, "bias_regularizer": null, "activity_regularizer": null, "kernel_constraint": null, "bias_constraint": null}, "inbound_nodes": [[["max_pooling2d_10", 0, 0, {}]]]}, {"name": "batch_normalization_117", "class_name": "BatchNormalization", "config": {"name": "batch_normalization_117", "trainable": true, "dtype": "float32", "axis": [3], "momentum": 0.99, "epsilon": 0.001, "center": true, "scale": true, "beta_initializer": {"class_name": "Zeros", "config": {"dtype": "float32"}}, "gamma_initializer": {"class_name": "Ones", "config": {"dtype": "float32"}}, "moving_mean_initializer": {"class_name": "Zeros", "config": {"dtype": "float32"}}, "moving_variance_initializer": {"class_name": "Ones", "config": {"dtype": "float32"}}, "beta_regularizer": null, "gamma_regularizer": null, "beta_constraint": null, "gamma_constraint": null}, "inbound_nodes": [[["conv2d_119", 0, 0, {}]]]}, {"name": "leaky_re_lu_117", "class_name": "LeakyReLU", "config": {"name": "leaky_re_lu_117", "trainable": true, "dtype": "float32", "alpha": 0.20000000298023224}, "inbound_nodes": [[["batch_normalization_117", 0, 0, {}]]]}, {"name": "conv2d_120", "class_name": "Conv2D", "config": {"name": "conv2d_120", "trainable": true, "dtype": "float32", "filters": 35, "kernel_size": [3, 3], "strides": [1, 1], "padding": "same", "data_format": "channels_last", "dilation_rate": [1, 1], "activation": "linear", "use_bias": true, "kernel_initializer": {"class_name": "VarianceScaling", "config": {"scale": 2.0, "mode": "fan_in", "distribution": "truncated_normal", "seed": null, "dtype": "float32"}}, "bias_initializer": {"class_name": "Zeros", "config": {"dtype": "float32"}}, "kernel_regularizer": null, "bias_regularizer": null, "activity_regularizer": null, "kernel_constraint": null, "bias_constraint": null}, "inbound_nodes": [[["leaky_re_lu_117", 0, 0, {}]]]}, {"name": "batch_normalization_118", "class_name": "BatchNormalization", "config": {"name": "batch_normalization_118", "trainable": true, "dtype": "float32", "axis": [3], "momentum": 0.99, "epsilon": 0.001, "center": true, "scale": true, "beta_initializer": {"class_name": "Zeros", "config": {"dtype": "float32"}}, "gamma_initializer": {"class_name": "Ones", "config": {"dtype": "float32"}}, "moving_mean_initializer": {"class_name": "Zeros", "config": {"dtype": "float32"}}, "moving_variance_initializer": {"class_name": "Ones", "config": {"dtype": "float32"}}, "beta_regularizer": null, "gamma_regularizer": null, "beta_constraint": null, "gamma_constraint": null}, "inbound_nodes": [[["conv2d_120", 0, 0, {}]]]}, {"name": "leaky_re_lu_118", "class_name": "LeakyReLU", "config": {"name": "leaky_re_lu_118", "trainable": true, "dtype": "float32", "alpha": 0.20000000298023224}, "inbound_nodes": [[["batch_normalization_118", 0, 0, {}]]]}, {"name": "conv2d_121", "class_name": "Conv2D", "config": {"name": "conv2d_121", "trainable": true, "dtype": "float32", "filters": 53, "kernel_size": [3, 3], "strides": [1, 1], "padding": "same", "data_format": "channels_last", "dilation_rate": [1, 1], "activation": "linear", "use_bias": true, "kernel_initializer": {"class_name": "VarianceScaling", "config": {"scale": 2.0, "mode": "fan_in", "distribution": "truncated_normal", "seed": null, "dtype": "float32"}}, "bias_initializer": {"class_name": "Zeros", "config": {"dtype": "float32"}}, "kernel_regularizer": null, "bias_regularizer": null, "activity_regularizer": null, "kernel_constraint": null, "bias_constraint": null}, "inbound_nodes": [[["leaky_re_lu_118", 0, 0, {}]]]}, {"name": "batch_normalization_119", "class_name": "BatchNormalization", "config": {"name": "batch_normalization_119", "trainable": true, "dtype": "float32", "axis": [3], "momentum": 0.99, "epsilon": 0.001, "center": true, "scale": true, "beta_initializer": {"class_name": "Zeros", "config": {"dtype": "float32"}}, "gamma_initializer": {"class_name": "Ones", "config": {"dtype": "float32"}}, "moving_mean_initializer": {"class_name": "Zeros", "config": {"dtype": "float32"}}, "moving_variance_initializer": {"class_name": "Ones", "config": {"dtype": "float32"}}, "beta_regularizer": null, "gamma_regularizer": null, "beta_constraint": null, "gamma_constraint": null}, "inbound_nodes": [[["conv2d_121", 0, 0, {}]]]}, {"name": "conv2d_118", "class_name": "Conv2D", "config": {"name": "conv2d_118", "trainable": true, "dtype": "float32", "filters": 105, "kernel_size": [1, 1], "strides": [1, 1], "padding": "same", "data_format": "channels_last", "dilation_rate": [1, 1], "activation": "linear", "use_bias": true, "kernel_initializer": {"class_name": "VarianceScaling", "config": {"scale": 2.0, "mode": "fan_in", "distribution": "truncated_normal", "seed": null, "dtype": "float32"}}, "bias_initializer": {"class_name": "Zeros", "config": {"dtype": "float32"}}, "kernel_regularizer": null, "bias_regularizer": null, "activity_regularizer": null, "kernel_constraint": null, "bias_constraint": null}, "inbound_nodes": [[["max_pooling2d_10", 0, 0, {}]]]}, {"name": "leaky_re_lu_119", "class_name": "LeakyReLU", "config": {"name": "leaky_re_lu_119", "trainable": true, "dtype": "float32", "alpha": 0.20000000298023224}, "inbound_nodes": [[["batch_normalization_119", 0, 0, {}]]]}, {"name": "batch_normalization_116", "class_name": "BatchNormalization", "config": {"name": "batch_normalization_116", "trainable": true, "dtype": "float32", "axis": [3], "momentum": 0.99, "epsilon": 0.001, "center": true, "scale": true, "beta_initializer": {"class_name": "Zeros", "config": {"dtype": "float32"}}, "gamma_initializer": {"class_name": "Ones", "config": {"dtype": "float32"}}, "moving_mean_initializer": {"class_name": "Zeros", "config": {"dtype": "float32"}}, "moving_variance_initializer": {"class_name": "Ones", "config": {"dtype": "float32"}}, "beta_regularizer": null, "gamma_regularizer": null, "beta_constraint": null, "gamma_constraint": null}, "inbound_nodes": [[["conv2d_118", 0, 0, {}]]]}, {"name": "concatenate_27", "class_name": "Concatenate", "config": {"name": "concatenate_27", "trainable": true, "dtype": "float32", "axis": -1}, "inbound_nodes": [[["leaky_re_lu_117", 0, 0, {}], ["leaky_re_lu_118", 0, 0, {}], ["leaky_re_lu_119", 0, 0, {}]]]}, {"name": "leaky_re_lu_116", "class_name": "LeakyReLU", "config": {"name": "leaky_re_lu_116", "trainable": true, "dtype": "float32", "alpha": 0.20000000298023224}, "inbound_nodes": [[["batch_normalization_116", 0, 0, {}]]]}, {"name": "add_39", "class_name": "Add", "config": {"name": "add_39", "trainable": true, "dtype": "float32"}, "inbound_nodes": [[["concatenate_27", 0, 0, {}], ["leaky_re_lu_116", 0, 0, {}]]]}, {"name": "max_pooling2d_11", "class_name": "MaxPooling2D", "config": {"name": "max_pooling2d_11", "trainable": true, "dtype": "float32", "pool_size": [2, 2], "padding": "valid", "strides": [2, 2], "data_format": "channels_last"}, "inbound_nodes": [[["add_39", 0, 0, {}]]]}, {"name": "conv2d_123", "class_name": "Conv2D", "config": {"name": "conv2d_123", "trainable": true, "dtype": "float32", "filters": 35, "kernel_size": [3, 3], "strides": [1, 1], "padding": "same", "data_format": "channels_last", "dilation_rate": [1, 1], "activation": "linear", "use_bias": true, "kernel_initializer": {"class_name": "VarianceScaling", "config": {"scale": 2.0, "mode": "fan_in", "distribution": "truncated_normal", "seed": null, "dtype": "float32"}}, "bias_initializer": {"class_name": "Zeros", "config": {"dtype": "float32"}}, "kernel_regularizer": null, "bias_regularizer": null, "activity_regularizer": null, "kernel_constraint": null, "bias_constraint": null}, "inbound_nodes": [[["max_pooling2d_11", 0, 0, {}]]]}, {"name": "batch_normalization_121", "class_name": "BatchNormalization", "config": {"name": "batch_normalization_121", "trainable": true, "dtype": "float32", "axis": [3], "momentum": 0.99, "epsilon": 0.001, "center": true, "scale": true, "beta_initializer": {"class_name": "Zeros", "config": {"dtype": "float32"}}, "gamma_initializer": {"class_name": "Ones", "config": {"dtype": "float32"}}, "moving_mean_initializer": {"class_name": "Zeros", "config": {"dtype": "float32"}}, "moving_variance_initializer": {"class_name": "Ones", "config": {"dtype": "float32"}}, "beta_regularizer": null, "gamma_regularizer": null, "beta_constraint": null, "gamma_constraint": null}, "inbound_nodes": [[["conv2d_123", 0, 0, {}]]]}, {"name": "leaky_re_lu_121", "class_name": "LeakyReLU", "config": {"name": "leaky_re_lu_121", "trainable": true, "dtype": "float32", "alpha": 0.20000000298023224}, "inbound_nodes": [[["batch_normalization_121", 0, 0, {}]]]}, {"name": "conv2d_124", "class_name": "Conv2D", "config": {"name": "conv2d_124", "trainable": true, "dtype": "float32", "filters": 71, "kernel_size": [3, 3], "strides": [1, 1], "padding": "same", "data_format": "channels_last", "dilation_rate": [1, 1], "activation": "linear", "use_bias": true, "kernel_initializer": {"class_name": "VarianceScaling", "config": {"scale": 2.0, "mode": "fan_in", "distribution": "truncated_normal", "seed": null, "dtype": "float32"}}, "bias_initializer": {"class_name": "Zeros", "config": {"dtype": "float32"}}, "kernel_regularizer": null, "bias_regularizer": null, "activity_regularizer": null, "kernel_constraint": null, "bias_constraint": null}, "inbound_nodes": [[["leaky_re_lu_121", 0, 0, {}]]]}, {"name": "batch_normalization_122", "class_name": "BatchNormalization", "config": {"name": "batch_normalization_122", "trainable": true, "dtype": "float32", "axis": [3], "momentum": 0.99, "epsilon": 0.001, "center": true, "scale": true, "beta_initializer": {"class_name": "Zeros", "config": {"dtype": "float32"}}, "gamma_initializer": {"class_name": "Ones", "config": {"dtype": "float32"}}, "moving_mean_initializer": {"class_name": "Zeros", "config": {"dtype": "float32"}}, "moving_variance_initializer": {"class_name": "Ones", "config": {"dtype": "float32"}}, "beta_regularizer": null, "gamma_regularizer": null, "beta_constraint": null, "gamma_constraint": null}, "inbound_nodes": [[["conv2d_124", 0, 0, {}]]]}, {"name": "leaky_re_lu_122", "class_name": "LeakyReLU", "config": {"name": "leaky_re_lu_122", "trainable": true, "dtype": "float32", "alpha": 0.20000000298023224}, "inbound_nodes": [[["batch_normalization_122", 0, 0, {}]]]}, {"name": "conv2d_125", "class_name": "Conv2D", "config": {"name": "conv2d_125", "trainable": true, "dtype": "float32", "filters": 106, "kernel_size": [3, 3], "strides": [1, 1], "padding": "same", "data_format": "channels_last", "dilation_rate": [1, 1], "activation": "linear", "use_bias": true, "kernel_initializer": {"class_name": "VarianceScaling", "config": {"scale": 2.0, "mode": "fan_in", "distribution": "truncated_normal", "seed": null, "dtype": "float32"}}, "bias_initializer": {"class_name": "Zeros", "config": {"dtype": "float32"}}, "kernel_regularizer": null, "bias_regularizer": null, "activity_regularizer": null, "kernel_constraint": null, "bias_constraint": null}, "inbound_nodes": [[["leaky_re_lu_122", 0, 0, {}]]]}, {"name": "batch_normalization_123", "class_name": "BatchNormalization", "config": {"name": "batch_normalization_123", "trainable": true, "dtype": "float32", "axis": [3], "momentum": 0.99, "epsilon": 0.001, "center": true, "scale": true, "beta_initializer": {"class_name": "Zeros", "config": {"dtype": "float32"}}, "gamma_initializer": {"class_name": "Ones", "config": {"dtype": "float32"}}, "moving_mean_initializer": {"class_name": "Zeros", "config": {"dtype": "float32"}}, "moving_variance_initializer": {"class_name": "Ones", "config": {"dtype": "float32"}}, "beta_regularizer": null, "gamma_regularizer": null, "beta_constraint": null, "gamma_constraint": null}, "inbound_nodes": [[["conv2d_125", 0, 0, {}]]]}, {"name": "conv2d_122", "class_name": "Conv2D", "config": {"name": "conv2d_122", "trainable": true, "dtype": "float32", "filters": 212, "kernel_size": [1, 1], "strides": [1, 1], "padding": "same", "data_format": "channels_last", "dilation_rate": [1, 1], "activation": "linear", "use_bias": true, "kernel_initializer": {"class_name": "VarianceScaling", "config": {"scale": 2.0, "mode": "fan_in", "distribution": "truncated_normal", "seed": null, "dtype": "float32"}}, "bias_initializer": {"class_name": "Zeros", "config": {"dtype": "float32"}}, "kernel_regularizer": null, "bias_regularizer": null, "activity_regularizer": null, "kernel_constraint": null, "bias_constraint": null}, "inbound_nodes": [[["max_pooling2d_11", 0, 0, {}]]]}, {"name": "leaky_re_lu_123", "class_name": "LeakyReLU", "config": {"name": "leaky_re_lu_123", "trainable": true, "dtype": "float32", "alpha": 0.20000000298023224}, "inbound_nodes": [[["batch_normalization_123", 0, 0, {}]]]}, {"name": "batch_normalization_120", "class_name": "BatchNormalization", "config": {"name": "batch_normalization_120", "trainable": true, "dtype": "float32", "axis": [3], "momentum": 0.99, "epsilon": 0.001, "center": true, "scale": true, "beta_initializer": {"class_name": "Zeros", "config": {"dtype": "float32"}}, "gamma_initializer": {"class_name": "Ones", "config": {"dtype": "float32"}}, "moving_mean_initializer": {"class_name": "Zeros", "config": {"dtype": "float32"}}, "moving_variance_initializer": {"class_name": "Ones", "config": {"dtype": "float32"}}, "beta_regularizer": null, "gamma_regularizer": null, "beta_constraint": null, "gamma_constraint": null}, "inbound_nodes": [[["conv2d_122", 0, 0, {}]]]}, {"name": "concatenate_28", "class_name": "Concatenate", "config": {"name": "concatenate_28", "trainable": true, "dtype": "float32", "axis": -1}, "inbound_nodes": [[["leaky_re_lu_121", 0, 0, {}], ["leaky_re_lu_122", 0, 0, {}], ["leaky_re_lu_123", 0, 0, {}]]]}, {"name": "leaky_re_lu_120", "class_name": "LeakyReLU", "config": {"name": "leaky_re_lu_120", "trainable": true, "dtype": "float32", "alpha": 0.20000000298023224}, "inbound_nodes": [[["batch_normalization_120", 0, 0, {}]]]}, {"name": "add_40", "class_name": "Add", "config": {"name": "add_40", "trainable": true, "dtype": "float32"}, "inbound_nodes": [[["concatenate_28", 0, 0, {}], ["leaky_re_lu_120", 0, 0, {}]]]}, {"name": "max_pooling2d_12", "class_name": "MaxPooling2D", "config": {"name": "max_pooling2d_12", "trainable": true, "dtype": "float32", "pool_size": [2, 2], "padding": "valid", "strides": [2, 2], "data_format": "channels_last"}, "inbound_nodes": [[["add_40", 0, 0, {}]]]}, {"name": "conv2d_127", "class_name": "Conv2D", "config": {"name": "conv2d_127", "trainable": true, "dtype": "float32", "filters": 71, "kernel_size": [3, 3], "strides": [1, 1], "padding": "same", "data_format": "channels_last", "dilation_rate": [1, 1], "activation": "linear", "use_bias": true, "kernel_initializer": {"class_name": "VarianceScaling", "config": {"scale": 2.0, "mode": "fan_in", "distribution": "truncated_normal", "seed": null, "dtype": "float32"}}, "bias_initializer": {"class_name": "Zeros", "config": {"dtype": "float32"}}, "kernel_regularizer": null, "bias_regularizer": null, "activity_regularizer": null, "kernel_constraint": null, "bias_constraint": null}, "inbound_nodes": [[["max_pooling2d_12", 0, 0, {}]]]}, {"name": "batch_normalization_125", "class_name": "BatchNormalization", "config": {"name": "batch_normalization_125", "trainable": true, "dtype": "float32", "axis": [3], "momentum": 0.99, "epsilon": 0.001, "center": true, "scale": true, "beta_initializer": {"class_name": "Zeros", "config": {"dtype": "float32"}}, "gamma_initializer": {"class_name": "Ones", "config": {"dtype": "float32"}}, "moving_mean_initializer": {"class_name": "Zeros", "config": {"dtype": "float32"}}, "moving_variance_initializer": {"class_name": "Ones", "config": {"dtype": "float32"}}, "beta_regularizer": null, "gamma_regularizer": null, "beta_constraint": null, "gamma_constraint": null}, "inbound_nodes": [[["conv2d_127", 0, 0, {}]]]}, {"name": "leaky_re_lu_125", "class_name": "LeakyReLU", "config": {"name": "leaky_re_lu_125", "trainable": true, "dtype": "float32", "alpha": 0.20000000298023224}, "inbound_nodes": [[["batch_normalization_125", 0, 0, {}]]]}, {"name": "conv2d_128", "class_name": "Conv2D", "config": {"name": "conv2d_128", "trainable": true, "dtype": "float32", "filters": 142, "kernel_size": [3, 3], "strides": [1, 1], "padding": "same", "data_format": "channels_last", "dilation_rate": [1, 1], "activation": "linear", "use_bias": true, "kernel_initializer": {"class_name": "VarianceScaling", "config": {"scale": 2.0, "mode": "fan_in", "distribution": "truncated_normal", "seed": null, "dtype": "float32"}}, "bias_initializer": {"class_name": "Zeros", "config": {"dtype": "float32"}}, "kernel_regularizer": null, "bias_regularizer": null, "activity_regularizer": null, "kernel_constraint": null, "bias_constraint": null}, "inbound_nodes": [[["leaky_re_lu_125", 0, 0, {}]]]}, {"name": "batch_normalization_126", "class_name": "BatchNormalization", "config": {"name": "batch_normalization_126", "trainable": true, "dtype": "float32", "axis": [3], "momentum": 0.99, "epsilon": 0.001, "center": true, "scale": true, "beta_initializer": {"class_name": "Zeros", "config": {"dtype": "float32"}}, "gamma_initializer": {"class_name": "Ones", "config": {"dtype": "float32"}}, "moving_mean_initializer": {"class_name": "Zeros", "config": {"dtype": "float32"}}, "moving_variance_initializer": {"class_name": "Ones", "config": {"dtype": "float32"}}, "beta_regularizer": null, "gamma_regularizer": null, "beta_constraint": null, "gamma_constraint": null}, "inbound_nodes": [[["conv2d_128", 0, 0, {}]]]}, {"name": "leaky_re_lu_126", "class_name": "LeakyReLU", "config": {"name": "leaky_re_lu_126", "trainable": true, "dtype": "float32", "alpha": 0.20000000298023224}, "inbound_nodes": [[["batch_normalization_126", 0, 0, {}]]]}, {"name": "conv2d_129", "class_name": "Conv2D", "config": {"name": "conv2d_129", "trainable": true, "dtype": "float32", "filters": 213, "kernel_size": [3, 3], "strides": [1, 1], "padding": "same", "data_format": "channels_last", "dilation_rate": [1, 1], "activation": "linear", "use_bias": true, "kernel_initializer": {"class_name": "VarianceScaling", "config": {"scale": 2.0, "mode": "fan_in", "distribution": "truncated_normal", "seed": null, "dtype": "float32"}}, "bias_initializer": {"class_name": "Zeros", "config": {"dtype": "float32"}}, "kernel_regularizer": null, "bias_regularizer": null, "activity_regularizer": null, "kernel_constraint": null, "bias_constraint": null}, "inbound_nodes": [[["leaky_re_lu_126", 0, 0, {}]]]}, {"name": "batch_normalization_127", "class_name": "BatchNormalization", "config": {"name": "batch_normalization_127", "trainable": true, "dtype": "float32", "axis": [3], "momentum": 0.99, "epsilon": 0.001, "center": true, "scale": true, "beta_initializer": {"class_name": "Zeros", "config": {"dtype": "float32"}}, "gamma_initializer": {"class_name": "Ones", "config": {"dtype": "float32"}}, "moving_mean_initializer": {"class_name": "Zeros", "config": {"dtype": "float32"}}, "moving_variance_initializer": {"class_name": "Ones", "config": {"dtype": "float32"}}, "beta_regularizer": null, "gamma_regularizer": null, "beta_constraint": null, "gamma_constraint": null}, "inbound_nodes": [[["conv2d_129", 0, 0, {}]]]}, {"name": "conv2d_126", "class_name": "Conv2D", "config": {"name": "conv2d_126", "trainable": true, "dtype": "float32", "filters": 426, "kernel_size": [1, 1], "strides": [1, 1], "padding": "same", "data_format": "channels_last", "dilation_rate": [1, 1], "activation": "linear", "use_bias": true, "kernel_initializer": {"class_name": "VarianceScaling", "config": {"scale": 2.0, "mode": "fan_in", "distribution": "truncated_normal", "seed": null, "dtype": "float32"}}, "bias_initializer": {"class_name": "Zeros", "config": {"dtype": "float32"}}, "kernel_regularizer": null, "bias_regularizer": null, "activity_regularizer": null, "kernel_constraint": null, "bias_constraint": null}, "inbound_nodes": [[["max_pooling2d_12", 0, 0, {}]]]}, {"name": "leaky_re_lu_127", "class_name": "LeakyReLU", "config": {"name": "leaky_re_lu_127", "trainable": true, "dtype": "float32", "alpha": 0.20000000298023224}, "inbound_nodes": [[["batch_normalization_127", 0, 0, {}]]]}, {"name": "batch_normalization_124", "class_name": "BatchNormalization", "config": {"name": "batch_normalization_124", "trainable": true, "dtype": "float32", "axis": [3], "momentum": 0.99, "epsilon": 0.001, "center": true, "scale": true, "beta_initializer": {"class_name": "Zeros", "config": {"dtype": "float32"}}, "gamma_initializer": {"class_name": "Ones", "config": {"dtype": "float32"}}, "moving_mean_initializer": {"class_name": "Zeros", "config": {"dtype": "float32"}}, "moving_variance_initializer": {"class_name": "Ones", "config": {"dtype": "float32"}}, "beta_regularizer": null, "gamma_regularizer": null, "beta_constraint": null, "gamma_constraint": null}, "inbound_nodes": [[["conv2d_126", 0, 0, {}]]]}, {"name": "concatenate_29", "class_name": "Concatenate", "config": {"name": "concatenate_29", "trainable": true, "dtype": "float32", "axis": -1}, "inbound_nodes": [[["leaky_re_lu_125", 0, 0, {}], ["leaky_re_lu_126", 0, 0, {}], ["leaky_re_lu_127", 0, 0, {}]]]}, {"name": "leaky_re_lu_124", "class_name": "LeakyReLU", "config": {"name": "leaky_re_lu_124", "trainable": true, "dtype": "float32", "alpha": 0.20000000298023224}, "inbound_nodes": [[["batch_normalization_124", 0, 0, {}]]]}, {"name": "add_41", "class_name": "Add", "config": {"name": "add_41", "trainable": true, "dtype": "float32"}, "inbound_nodes": [[["concatenate_29", 0, 0, {}], ["leaky_re_lu_124", 0, 0, {}]]]}, {"name": "max_pooling2d_13", "class_name": "MaxPooling2D", "config": {"name": "max_pooling2d_13", "trainable": true, "dtype": "float32", "pool_size": [2, 2], "padding": "valid", "strides": [2, 2], "data_format": "channels_last"}, "inbound_nodes": [[["add_41", 0, 0, {}]]]}, {"name": "conv2d_131", "class_name": "Conv2D", "config": {"name": "conv2d_131", "trainable": true, "dtype": "float32", "filters": 142, "kernel_size": [3, 3], "strides": [1, 1], "padding": "same", "data_format": "channels_last", "dilation_rate": [1, 1], "activation": "linear", "use_bias": true, "kernel_initializer": {"class_name": "VarianceScaling", "config": {"scale": 2.0, "mode": "fan_in", "distribution": "truncated_normal", "seed": null, "dtype": "float32"}}, "bias_initializer": {"class_name": "Zeros", "config": {"dtype": "float32"}}, "kernel_regularizer": null, "bias_regularizer": null, "activity_regularizer": null, "kernel_constraint": null, "bias_constraint": null}, "inbound_nodes": [[["max_pooling2d_13", 0, 0, {}]]]}, {"name": "batch_normalization_129", "class_name": "BatchNormalization", "config": {"name": "batch_normalization_129", "trainable": true, "dtype": "float32", "axis": [3], "momentum": 0.99, "epsilon": 0.001, "center": true, "scale": true, "beta_initializer": {"class_name": "Zeros", "config": {"dtype": "float32"}}, "gamma_initializer": {"class_name": "Ones", "config": {"dtype": "float32"}}, "moving_mean_initializer": {"class_name": "Zeros", "config": {"dtype": "float32"}}, "moving_variance_initializer": {"class_name": "Ones", "config": {"dtype": "float32"}}, "beta_regularizer": null, "gamma_regularizer": null, "beta_constraint": null, "gamma_constraint": null}, "inbound_nodes": [[["conv2d_131", 0, 0, {}]]]}, {"name": "leaky_re_lu_129", "class_name": "LeakyReLU", "config": {"name": "leaky_re_lu_129", "trainable": true, "dtype": "float32", "alpha": 0.20000000298023224}, "inbound_nodes": [[["batch_normalization_129", 0, 0, {}]]]}, {"name": "conv2d_132", "class_name": "Conv2D", "config": {"name": "conv2d_132", "trainable": true, "dtype": "float32", "filters": 285, "kernel_size": [3, 3], "strides": [1, 1], "padding": "same", "data_format": "channels_last", "dilation_rate": [1, 1], "activation": "linear", "use_bias": true, "kernel_initializer": {"class_name": "VarianceScaling", "config": {"scale": 2.0, "mode": "fan_in", "distribution": "truncated_normal", "seed": null, "dtype": "float32"}}, "bias_initializer": {"class_name": "Zeros", "config": {"dtype": "float32"}}, "kernel_regularizer": null, "bias_regularizer": null, "activity_regularizer": null, "kernel_constraint": null, "bias_constraint": null}, "inbound_nodes": [[["leaky_re_lu_129", 0, 0, {}]]]}, {"name": "batch_normalization_130", "class_name": "BatchNormalization", "config": {"name": "batch_normalization_130", "trainable": true, "dtype": "float32", "axis": [3], "momentum": 0.99, "epsilon": 0.001, "center": true, "scale": true, "beta_initializer": {"class_name": "Zeros", "config": {"dtype": "float32"}}, "gamma_initializer": {"class_name": "Ones", "config": {"dtype": "float32"}}, "moving_mean_initializer": {"class_name": "Zeros", "config": {"dtype": "float32"}}, "moving_variance_initializer": {"class_name": "Ones", "config": {"dtype": "float32"}}, "beta_regularizer": null, "gamma_regularizer": null, "beta_constraint": null, "gamma_constraint": null}, "inbound_nodes": [[["conv2d_132", 0, 0, {}]]]}, {"name": "leaky_re_lu_130", "class_name": "LeakyReLU", "config": {"name": "leaky_re_lu_130", "trainable": true, "dtype": "float32", "alpha": 0.20000000298023224}, "inbound_nodes": [[["batch_normalization_130", 0, 0, {}]]]}, {"name": "conv2d_133", "class_name": "Conv2D", "config": {"name": "conv2d_133", "trainable": true, "dtype": "float32", "filters": 427, "kernel_size": [3, 3], "strides": [1, 1], "padding": "same", "data_format": "channels_last", "dilation_rate": [1, 1], "activation": "linear", "use_bias": true, "kernel_initializer": {"class_name": "VarianceScaling", "config": {"scale": 2.0, "mode": "fan_in", "distribution": "truncated_normal", "seed": null, "dtype": "float32"}}, "bias_initializer": {"class_name": "Zeros", "config": {"dtype": "float32"}}, "kernel_regularizer": null, "bias_regularizer": null, "activity_regularizer": null, "kernel_constraint": null, "bias_constraint": null}, "inbound_nodes": [[["leaky_re_lu_130", 0, 0, {}]]]}, {"name": "batch_normalization_131", "class_name": "BatchNormalization", "config": {"name": "batch_normalization_131", "trainable": true, "dtype": "float32", "axis": [3], "momentum": 0.99, "epsilon": 0.001, "center": true, "scale": true, "beta_initializer": {"class_name": "Zeros", "config": {"dtype": "float32"}}, "gamma_initializer": {"class_name": "Ones", "config": {"dtype": "float32"}}, "moving_mean_initializer": {"class_name": "Zeros", "config": {"dtype": "float32"}}, "moving_variance_initializer": {"class_name": "Ones", "config": {"dtype": "float32"}}, "beta_regularizer": null, "gamma_regularizer": null, "beta_constraint": null, "gamma_constraint": null}, "inbound_nodes": [[["conv2d_133", 0, 0, {}]]]}, {"name": "conv2d_130", "class_name": "Conv2D", "config": {"name": "conv2d_130", "trainable": true, "dtype": "float32", "filters": 854, "kernel_size": [1, 1], "strides": [1, 1], "padding": "same", "data_format": "channels_last", "dilation_rate": [1, 1], "activation": "linear", "use_bias": true, "kernel_initializer": {"class_name": "VarianceScaling", "config": {"scale": 2.0, "mode": "fan_in", "distribution": "truncated_normal", "seed": null, "dtype": "float32"}}, "bias_initializer": {"class_name": "Zeros", "config": {"dtype": "float32"}}, "kernel_regularizer": null, "bias_regularizer": null, "activity_regularizer": null, "kernel_constraint": null, "bias_constraint": null}, "inbound_nodes": [[["max_pooling2d_13", 0, 0, {}]]]}, {"name": "leaky_re_lu_131", "class_name": "LeakyReLU", "config": {"name": "leaky_re_lu_131", "trainable": true, "dtype": "float32", "alpha": 0.20000000298023224}, "inbound_nodes": [[["batch_normalization_131", 0, 0, {}]]]}, {"name": "batch_normalization_128", "class_name": "BatchNormalization", "config": {"name": "batch_normalization_128", "trainable": true, "dtype": "float32", "axis": [3], "momentum": 0.99, "epsilon": 0.001, "center": true, "scale": true, "beta_initializer": {"class_name": "Zeros", "config": {"dtype": "float32"}}, "gamma_initializer": {"class_name": "Ones", "config": {"dtype": "float32"}}, "moving_mean_initializer": {"class_name": "Zeros", "config": {"dtype": "float32"}}, "moving_variance_initializer": {"class_name": "Ones", "config": {"dtype": "float32"}}, "beta_regularizer": null, "gamma_regularizer": null, "beta_constraint": null, "gamma_constraint": null}, "inbound_nodes": [[["conv2d_130", 0, 0, {}]]]}, {"name": "conv2d_152", "class_name": "Conv2D", "config": {"name": "conv2d_152", "trainable": true, "dtype": "float32", "filters": 256, "kernel_size": [3, 3], "strides": [1, 1], "padding": "same", "data_format": "channels_last", "dilation_rate": [1, 1], "activation": "linear", "use_bias": true, "kernel_initializer": {"class_name": "VarianceScaling", "config": {"scale": 2.0, "mode": "fan_in", "distribution": "truncated_normal", "seed": null, "dtype": "float32"}}, "bias_initializer": {"class_name": "Zeros", "config": {"dtype": "float32"}}, "kernel_regularizer": null, "bias_regularizer": null, "activity_regularizer": null, "kernel_constraint": null, "bias_constraint": null}, "inbound_nodes": [[["add_41", 0, 0, {}]]]}, {"name": "conv2d_153", "class_name": "Conv2D", "config": {"name": "conv2d_153", "trainable": true, "dtype": "float32", "filters": 256, "kernel_size": [1, 1], "strides": [1, 1], "padding": "same", "data_format": "channels_last", "dilation_rate": [1, 1], "activation": "linear", "use_bias": true, "kernel_initializer": {"class_name": "VarianceScaling", "config": {"scale": 2.0, "mode": "fan_in", "distribution": "truncated_normal", "seed": null, "dtype": "float32"}}, "bias_initializer": {"class_name": "Zeros", "config": {"dtype": "float32"}}, "kernel_regularizer": null, "bias_regularizer": null, "activity_regularizer": null, "kernel_constraint": null, "bias_constraint": null}, "inbound_nodes": [[["add_41", 0, 0, {}]]]}, {"name": "concatenate_30", "class_name": "Concatenate", "config": {"name": "concatenate_30", "trainable": true, "dtype": "float32", "axis": -1}, "inbound_nodes": [[["leaky_re_lu_129", 0, 0, {}], ["leaky_re_lu_130", 0, 0, {}], ["leaky_re_lu_131", 0, 0, {}]]]}, {"name": "leaky_re_lu_128", "class_name": "LeakyReLU", "config": {"name": "leaky_re_lu_128", "trainable": true, "dtype": "float32", "alpha": 0.20000000298023224}, "inbound_nodes": [[["batch_normalization_128", 0, 0, {}]]]}, {"name": "batch_normalization_150", "class_name": "BatchNormalization", "config": {"name": "batch_normalization_150", "trainable": true, "dtype": "float32", "axis": [3], "momentum": 0.99, "epsilon": 0.001, "center": true, "scale": true, "beta_initializer": {"class_name": "Zeros", "config": {"dtype": "float32"}}, "gamma_initializer": {"class_name": "Ones", "config": {"dtype": "float32"}}, "moving_mean_initializer": {"class_name": "Zeros", "config": {"dtype": "float32"}}, "moving_variance_initializer": {"class_name": "Ones", "config": {"dtype": "float32"}}, "beta_regularizer": null, "gamma_regularizer": null, "beta_constraint": null, "gamma_constraint": null}, "inbound_nodes": [[["conv2d_152", 0, 0, {}]]]}, {"name": "batch_normalization_151", "class_name": "BatchNormalization", "config": {"name": "batch_normalization_151", "trainable": true, "dtype": "float32", "axis": [3], "momentum": 0.99, "epsilon": 0.001, "center": true, "scale": true, "beta_initializer": {"class_name": "Zeros", "config": {"dtype": "float32"}}, "gamma_initializer": {"class_name": "Ones", "config": {"dtype": "float32"}}, "moving_mean_initializer": {"class_name": "Zeros", "config": {"dtype": "float32"}}, "moving_variance_initializer": {"class_name": "Ones", "config": {"dtype": "float32"}}, "beta_regularizer": null, "gamma_regularizer": null, "beta_constraint": null, "gamma_constraint": null}, "inbound_nodes": [[["conv2d_153", 0, 0, {}]]]}, {"name": "add_42", "class_name": "Add", "config": {"name": "add_42", "trainable": true, "dtype": "float32"}, "inbound_nodes": [[["concatenate_30", 0, 0, {}], ["leaky_re_lu_128", 0, 0, {}]]]}, {"name": "leaky_re_lu_150", "class_name": "LeakyReLU", "config": {"name": "leaky_re_lu_150", "trainable": true, "dtype": "float32", "alpha": 0.20000000298023224}, "inbound_nodes": [[["batch_normalization_150", 0, 0, {}]]]}, {"name": "leaky_re_lu_151", "class_name": "LeakyReLU", "config": {"name": "leaky_re_lu_151", "trainable": true, "dtype": "float32", "alpha": 0.20000000298023224}, "inbound_nodes": [[["batch_normalization_151", 0, 0, {}]]]}, {"name": "conv2d_transpose_8", "class_name": "Conv2DTranspose", "config": {"name": "conv2d_transpose_8", "trainable": true, "dtype": "float32", "filters": 256, "kernel_size": [2, 2], "strides": [2, 2], "padding": "same", "data_format": "channels_last", "dilation_rate": [1, 1], "activation": "linear", "use_bias": true, "kernel_initializer": {"class_name": "GlorotUniform", "config": {"seed": null, "dtype": "float32"}}, "bias_initializer": {"class_name": "Zeros", "config": {"dtype": "float32"}}, "kernel_regularizer": null, "bias_regularizer": null, "activity_regularizer": null, "kernel_constraint": null, "bias_constraint": null}, "inbound_nodes": [[["add_42", 0, 0, {}]]]}, {"name": "add_52", "class_name": "Add", "config": {"name": "add_52", "trainable": true, "dtype": "float32"}, "inbound_nodes": [[["leaky_re_lu_150", 0, 0, {}], ["leaky_re_lu_151", 0, 0, {}]]]}, {"name": "concatenate_31", "class_name": "Concatenate", "config": {"name": "concatenate_31", "trainable": true, "dtype": "float32", "axis": -1}, "inbound_nodes": [[["conv2d_transpose_8", 0, 0, {}], ["add_52", 0, 0, {}]]]}, {"name": "conv2d_155", "class_name": "Conv2D", "config": {"name": "conv2d_155", "trainable": true, "dtype": "float32", "filters": 71, "kernel_size": [3, 3], "strides": [1, 1], "padding": "same", "data_format": "channels_last", "dilation_rate": [1, 1], "activation": "linear", "use_bias": true, "kernel_initializer": {"class_name": "VarianceScaling", "config": {"scale": 2.0, "mode": "fan_in", "distribution": "truncated_normal", "seed": null, "dtype": "float32"}}, "bias_initializer": {"class_name": "Zeros", "config": {"dtype": "float32"}}, "kernel_regularizer": null, "bias_regularizer": null, "activity_regularizer": null, "kernel_constraint": null, "bias_constraint": null}, "inbound_nodes": [[["concatenate_31", 0, 0, {}]]]}, {"name": "batch_normalization_153", "class_name": "BatchNormalization", "config": {"name": "batch_normalization_153", "trainable": true, "dtype": "float32", "axis": [3], "momentum": 0.99, "epsilon": 0.001, "center": true, "scale": true, "beta_initializer": {"class_name": "Zeros", "config": {"dtype": "float32"}}, "gamma_initializer": {"class_name": "Ones", "config": {"dtype": "float32"}}, "moving_mean_initializer": {"class_name": "Zeros", "config": {"dtype": "float32"}}, "moving_variance_initializer": {"class_name": "Ones", "config": {"dtype": "float32"}}, "beta_regularizer": null, "gamma_regularizer": null, "beta_constraint": null, "gamma_constraint": null}, "inbound_nodes": [[["conv2d_155", 0, 0, {}]]]}, {"name": "leaky_re_lu_153", "class_name": "LeakyReLU", "config": {"name": "leaky_re_lu_153", "trainable": true, "dtype": "float32", "alpha": 0.20000000298023224}, "inbound_nodes": [[["batch_normalization_153", 0, 0, {}]]]}, {"name": "conv2d_156", "class_name": "Conv2D", "config": {"name": "conv2d_156", "trainable": true, "dtype": "float32", "filters": 142, "kernel_size": [3, 3], "strides": [1, 1], "padding": "same", "data_format": "channels_last", "dilation_rate": [1, 1], "activation": "linear", "use_bias": true, "kernel_initializer": {"class_name": "VarianceScaling", "config": {"scale": 2.0, "mode": "fan_in", "distribution": "truncated_normal", "seed": null, "dtype": "float32"}}, "bias_initializer": {"class_name": "Zeros", "config": {"dtype": "float32"}}, "kernel_regularizer": null, "bias_regularizer": null, "activity_regularizer": null, "kernel_constraint": null, "bias_constraint": null}, "inbound_nodes": [[["leaky_re_lu_153", 0, 0, {}]]]}, {"name": "batch_normalization_154", "class_name": "BatchNormalization", "config": {"name": "batch_normalization_154", "trainable": true, "dtype": "float32", "axis": [3], "momentum": 0.99, "epsilon": 0.001, "center": true, "scale": true, "beta_initializer": {"class_name": "Zeros", "config": {"dtype": "float32"}}, "gamma_initializer": {"class_name": "Ones", "config": {"dtype": "float32"}}, "moving_mean_initializer": {"class_name": "Zeros", "config": {"dtype": "float32"}}, "moving_variance_initializer": {"class_name": "Ones", "config": {"dtype": "float32"}}, "beta_regularizer": null, "gamma_regularizer": null, "beta_constraint": null, "gamma_constraint": null}, "inbound_nodes": [[["conv2d_156", 0, 0, {}]]]}, {"name": "conv2d_148", "class_name": "Conv2D", "config": {"name": "conv2d_148", "trainable": true, "dtype": "float32", "filters": 128, "kernel_size": [3, 3], "strides": [1, 1], "padding": "same", "data_format": "channels_last", "dilation_rate": [1, 1], "activation": "linear", "use_bias": true, "kernel_initializer": {"class_name": "VarianceScaling", "config": {"scale": 2.0, "mode": "fan_in", "distribution": "truncated_normal", "seed": null, "dtype": "float32"}}, "bias_initializer": {"class_name": "Zeros", "config": {"dtype": "float32"}}, "kernel_regularizer": null, "bias_regularizer": null, "activity_regularizer": null, "kernel_constraint": null, "bias_constraint": null}, "inbound_nodes": [[["add_40", 0, 0, {}]]]}, {"name": "conv2d_149", "class_name": "Conv2D", "config": {"name": "conv2d_149", "trainable": true, "dtype": "float32", "filters": 128, "kernel_size": [1, 1], "strides": [1, 1], "padding": "same", "data_format": "channels_last", "dilation_rate": [1, 1], "activation": "linear", "use_bias": true, "kernel_initializer": {"class_name": "VarianceScaling", "config": {"scale": 2.0, "mode": "fan_in", "distribution": "truncated_normal", "seed": null, "dtype": "float32"}}, "bias_initializer": {"class_name": "Zeros", "config": {"dtype": "float32"}}, "kernel_regularizer": null, "bias_regularizer": null, "activity_regularizer": null, "kernel_constraint": null, "bias_constraint": null}, "inbound_nodes": [[["add_40", 0, 0, {}]]]}, {"name": "leaky_re_lu_154", "class_name": "LeakyReLU", "config": {"name": "leaky_re_lu_154", "trainable": true, "dtype": "float32", "alpha": 0.20000000298023224}, "inbound_nodes": [[["batch_normalization_154", 0, 0, {}]]]}, {"name": "batch_normalization_146", "class_name": "BatchNormalization", "config": {"name": "batch_normalization_146", "trainable": true, "dtype": "float32", "axis": [3], "momentum": 0.99, "epsilon": 0.001, "center": true, "scale": true, "beta_initializer": {"class_name": "Zeros", "config": {"dtype": "float32"}}, "gamma_initializer": {"class_name": "Ones", "config": {"dtype": "float32"}}, "moving_mean_initializer": {"class_name": "Zeros", "config": {"dtype": "float32"}}, "moving_variance_initializer": {"class_name": "Ones", "config": {"dtype": "float32"}}, "beta_regularizer": null, "gamma_regularizer": null, "beta_constraint": null, "gamma_constraint": null}, "inbound_nodes": [[["conv2d_148", 0, 0, {}]]]}, {"name": "batch_normalization_147", "class_name": "BatchNormalization", "config": {"name": "batch_normalization_147", "trainable": true, "dtype": "float32", "axis": [3], "momentum": 0.99, "epsilon": 0.001, "center": true, "scale": true, "beta_initializer": {"class_name": "Zeros", "config": {"dtype": "float32"}}, "gamma_initializer": {"class_name": "Ones", "config": {"dtype": "float32"}}, "moving_mean_initializer": {"class_name": "Zeros", "config": {"dtype": "float32"}}, "moving_variance_initializer": {"class_name": "Ones", "config": {"dtype": "float32"}}, "beta_regularizer": null, "gamma_regularizer": null, "beta_constraint": null, "gamma_constraint": null}, "inbound_nodes": [[["conv2d_149", 0, 0, {}]]]}, {"name": "conv2d_157", "class_name": "Conv2D", "config": {"name": "conv2d_157", "trainable": true, "dtype": "float32", "filters": 213, "kernel_size": [3, 3], "strides": [1, 1], "padding": "same", "data_format": "channels_last", "dilation_rate": [1, 1], "activation": "linear", "use_bias": true, "kernel_initializer": {"class_name": "VarianceScaling", "config": {"scale": 2.0, "mode": "fan_in", "distribution": "truncated_normal", "seed": null, "dtype": "float32"}}, "bias_initializer": {"class_name": "Zeros", "config": {"dtype": "float32"}}, "kernel_regularizer": null, "bias_regularizer": null, "activity_regularizer": null, "kernel_constraint": null, "bias_constraint": null}, "inbound_nodes": [[["leaky_re_lu_154", 0, 0, {}]]]}, {"name": "leaky_re_lu_146", "class_name": "LeakyReLU", "config": {"name": "leaky_re_lu_146", "trainable": true, "dtype": "float32", "alpha": 0.20000000298023224}, "inbound_nodes": [[["batch_normalization_146", 0, 0, {}]]]}, {"name": "leaky_re_lu_147", "class_name": "LeakyReLU", "config": {"name": "leaky_re_lu_147", "trainable": true, "dtype": "float32", "alpha": 0.20000000298023224}, "inbound_nodes": [[["batch_normalization_147", 0, 0, {}]]]}, {"name": "batch_normalization_155", "class_name": "BatchNormalization", "config": {"name": "batch_normalization_155", "trainable": true, "dtype": "float32", "axis": [3], "momentum": 0.99, "epsilon": 0.001, "center": true, "scale": true, "beta_initializer": {"class_name": "Zeros", "config": {"dtype": "float32"}}, "gamma_initializer": {"class_name": "Ones", "config": {"dtype": "float32"}}, "moving_mean_initializer": {"class_name": "Zeros", "config": {"dtype": "float32"}}, "moving_variance_initializer": {"class_name": "Ones", "config": {"dtype": "float32"}}, "beta_regularizer": null, "gamma_regularizer": null, "beta_constraint": null, "gamma_constraint": null}, "inbound_nodes": [[["conv2d_157", 0, 0, {}]]]}, {"name": "conv2d_154", "class_name": "Conv2D", "config": {"name": "conv2d_154", "trainable": true, "dtype": "float32", "filters": 426, "kernel_size": [1, 1], "strides": [1, 1], "padding": "same", "data_format": "channels_last", "dilation_rate": [1, 1], "activation": "linear", "use_bias": true, "kernel_initializer": {"class_name": "VarianceScaling", "config": {"scale": 2.0, "mode": "fan_in", "distribution": "truncated_normal", "seed": null, "dtype": "float32"}}, "bias_initializer": {"class_name": "Zeros", "config": {"dtype": "float32"}}, "kernel_regularizer": null, "bias_regularizer": null, "activity_regularizer": null, "kernel_constraint": null, "bias_constraint": null}, "inbound_nodes": [[["concatenate_31", 0, 0, {}]]]}, {"name": "add_50", "class_name": "Add", "config": {"name": "add_50", "trainable": true, "dtype": "float32"}, "inbound_nodes": [[["leaky_re_lu_146", 0, 0, {}], ["leaky_re_lu_147", 0, 0, {}]]]}, {"name": "leaky_re_lu_155", "class_name": "LeakyReLU", "config": {"name": "leaky_re_lu_155", "trainable": true, "dtype": "float32", "alpha": 0.20000000298023224}, "inbound_nodes": [[["batch_normalization_155", 0, 0, {}]]]}, {"name": "batch_normalization_152", "class_name": "BatchNormalization", "config": {"name": "batch_normalization_152", "trainable": true, "dtype": "float32", "axis": [3], "momentum": 0.99, "epsilon": 0.001, "center": true, "scale": true, "beta_initializer": {"class_name": "Zeros", "config": {"dtype": "float32"}}, "gamma_initializer": {"class_name": "Ones", "config": {"dtype": "float32"}}, "moving_mean_initializer": {"class_name": "Zeros", "config": {"dtype": "float32"}}, "moving_variance_initializer": {"class_name": "Ones", "config": {"dtype": "float32"}}, "beta_regularizer": null, "gamma_regularizer": null, "beta_constraint": null, "gamma_constraint": null}, "inbound_nodes": [[["conv2d_154", 0, 0, {}]]]}, {"name": "conv2d_150", "class_name": "Conv2D", "config": {"name": "conv2d_150", "trainable": true, "dtype": "float32", "filters": 128, "kernel_size": [3, 3], "strides": [1, 1], "padding": "same", "data_format": "channels_last", "dilation_rate": [1, 1], "activation": "linear", "use_bias": true, "kernel_initializer": {"class_name": "VarianceScaling", "config": {"scale": 2.0, "mode": "fan_in", "distribution": "truncated_normal", "seed": null, "dtype": "float32"}}, "bias_initializer": {"class_name": "Zeros", "config": {"dtype": "float32"}}, "kernel_regularizer": null, "bias_regularizer": null, "activity_regularizer": null, "kernel_constraint": null, "bias_constraint": null}, "inbound_nodes": [[["add_50", 0, 0, {}]]]}, {"name": "conv2d_151", "class_name": "Conv2D", "config": {"name": "conv2d_151", "trainable": true, "dtype": "float32", "filters": 128, "kernel_size": [1, 1], "strides": [1, 1], "padding": "same", "data_format": "channels_last", "dilation_rate": [1, 1], "activation": "linear", "use_bias": true, "kernel_initializer": {"class_name": "VarianceScaling", "config": {"scale": 2.0, "mode": "fan_in", "distribution": "truncated_normal", "seed": null, "dtype": "float32"}}, "bias_initializer": {"class_name": "Zeros", "config": {"dtype": "float32"}}, "kernel_regularizer": null, "bias_regularizer": null, "activity_regularizer": null, "kernel_constraint": null, "bias_constraint": null}, "inbound_nodes": [[["add_50", 0, 0, {}]]]}, {"name": "concatenate_32", "class_name": "Concatenate", "config": {"name": "concatenate_32", "trainable": true, "dtype": "float32", "axis": -1}, "inbound_nodes": [[["leaky_re_lu_153", 0, 0, {}], ["leaky_re_lu_154", 0, 0, {}], ["leaky_re_lu_155", 0, 0, {}]]]}, {"name": "leaky_re_lu_152", "class_name": "LeakyReLU", "config": {"name": "leaky_re_lu_152", "trainable": true, "dtype": "float32", "alpha": 0.20000000298023224}, "inbound_nodes": [[["batch_normalization_152", 0, 0, {}]]]}, {"name": "batch_normalization_148", "class_name": "BatchNormalization", "config": {"name": "batch_normalization_148", "trainable": true, "dtype": "float32", "axis": [3], "momentum": 0.99, "epsilon": 0.001, "center": true, "scale": true, "beta_initializer": {"class_name": "Zeros", "config": {"dtype": "float32"}}, "gamma_initializer": {"class_name": "Ones", "config": {"dtype": "float32"}}, "moving_mean_initializer": {"class_name": "Zeros", "config": {"dtype": "float32"}}, "moving_variance_initializer": {"class_name": "Ones", "config": {"dtype": "float32"}}, "beta_regularizer": null, "gamma_regularizer": null, "beta_constraint": null, "gamma_constraint": null}, "inbound_nodes": [[["conv2d_150", 0, 0, {}]]]}, {"name": "batch_normalization_149", "class_name": "BatchNormalization", "config": {"name": "batch_normalization_149", "trainable": true, "dtype": "float32", "axis": [3], "momentum": 0.99, "epsilon": 0.001, "center": true, "scale": true, "beta_initializer": {"class_name": "Zeros", "config": {"dtype": "float32"}}, "gamma_initializer": {"class_name": "Ones", "config": {"dtype": "float32"}}, "moving_mean_initializer": {"class_name": "Zeros", "config": {"dtype": "float32"}}, "moving_variance_initializer": {"class_name": "Ones", "config": {"dtype": "float32"}}, "beta_regularizer": null, "gamma_regularizer": null, "beta_constraint": null, "gamma_constraint": null}, "inbound_nodes": [[["conv2d_151", 0, 0, {}]]]}, {"name": "add_53", "class_name": "Add", "config": {"name": "add_53", "trainable": true, "dtype": "float32"}, "inbound_nodes": [[["concatenate_32", 0, 0, {}], ["leaky_re_lu_152", 0, 0, {}]]]}, {"name": "leaky_re_lu_148", "class_name": "LeakyReLU", "config": {"name": "leaky_re_lu_148", "trainable": true, "dtype": "float32", "alpha": 0.20000000298023224}, "inbound_nodes": [[["batch_normalization_148", 0, 0, {}]]]}, {"name": "leaky_re_lu_149", "class_name": "LeakyReLU", "config": {"name": "leaky_re_lu_149", "trainable": true, "dtype": "float32", "alpha": 0.20000000298023224}, "inbound_nodes": [[["batch_normalization_149", 0, 0, {}]]]}, {"name": "conv2d_transpose_9", "class_name": "Conv2DTranspose", "config": {"name": "conv2d_transpose_9", "trainable": true, "dtype": "float32", "filters": 128, "kernel_size": [2, 2], "strides": [2, 2], "padding": "same", "data_format": "channels_last", "dilation_rate": [1, 1], "activation": "linear", "use_bias": true, "kernel_initializer": {"class_name": "GlorotUniform", "config": {"seed": null, "dtype": "float32"}}, "bias_initializer": {"class_name": "Zeros", "config": {"dtype": "float32"}}, "kernel_regularizer": null, "bias_regularizer": null, "activity_regularizer": null, "kernel_constraint": null, "bias_constraint": null}, "inbound_nodes": [[["add_53", 0, 0, {}]]]}, {"name": "add_51", "class_name": "Add", "config": {"name": "add_51", "trainable": true, "dtype": "float32"}, "inbound_nodes": [[["leaky_re_lu_148", 0, 0, {}], ["leaky_re_lu_149", 0, 0, {}]]]}, {"name": "concatenate_33", "class_name": "Concatenate", "config": {"name": "concatenate_33", "trainable": true, "dtype": "float32", "axis": -1}, "inbound_nodes": [[["conv2d_transpose_9", 0, 0, {}], ["add_51", 0, 0, {}]]]}, {"name": "conv2d_159", "class_name": "Conv2D", "config": {"name": "conv2d_159", "trainable": true, "dtype": "float32", "filters": 35, "kernel_size": [3, 3], "strides": [1, 1], "padding": "same", "data_format": "channels_last", "dilation_rate": [1, 1], "activation": "linear", "use_bias": true, "kernel_initializer": {"class_name": "VarianceScaling", "config": {"scale": 2.0, "mode": "fan_in", "distribution": "truncated_normal", "seed": null, "dtype": "float32"}}, "bias_initializer": {"class_name": "Zeros", "config": {"dtype": "float32"}}, "kernel_regularizer": null, "bias_regularizer": null, "activity_regularizer": null, "kernel_constraint": null, "bias_constraint": null}, "inbound_nodes": [[["concatenate_33", 0, 0, {}]]]}, {"name": "conv2d_142", "class_name": "Conv2D", "config": {"name": "conv2d_142", "trainable": true, "dtype": "float32", "filters": 64, "kernel_size": [3, 3], "strides": [1, 1], "padding": "same", "data_format": "channels_last", "dilation_rate": [1, 1], "activation": "linear", "use_bias": true, "kernel_initializer": {"class_name": "VarianceScaling", "config": {"scale": 2.0, "mode": "fan_in", "distribution": "truncated_normal", "seed": null, "dtype": "float32"}}, "bias_initializer": {"class_name": "Zeros", "config": {"dtype": "float32"}}, "kernel_regularizer": null, "bias_regularizer": null, "activity_regularizer": null, "kernel_constraint": null, "bias_constraint": null}, "inbound_nodes": [[["add_39", 0, 0, {}]]]}, {"name": "conv2d_143", "class_name": "Conv2D", "config": {"name": "conv2d_143", "trainable": true, "dtype": "float32", "filters": 64, "kernel_size": [1, 1], "strides": [1, 1], "padding": "same", "data_format": "channels_last", "dilation_rate": [1, 1], "activation": "linear", "use_bias": true, "kernel_initializer": {"class_name": "VarianceScaling", "config": {"scale": 2.0, "mode": "fan_in", "distribution": "truncated_normal", "seed": null, "dtype": "float32"}}, "bias_initializer": {"class_name": "Zeros", "config": {"dtype": "float32"}}, "kernel_regularizer": null, "bias_regularizer": null, "activity_regularizer": null, "kernel_constraint": null, "bias_constraint": null}, "inbound_nodes": [[["add_39", 0, 0, {}]]]}, {"name": "batch_normalization_157", "class_name": "BatchNormalization", "config": {"name": "batch_normalization_157", "trainable": true, "dtype": "float32", "axis": [3], "momentum": 0.99, "epsilon": 0.001, "center": true, "scale": true, "beta_initializer": {"class_name": "Zeros", "config": {"dtype": "float32"}}, "gamma_initializer": {"class_name": "Ones", "config": {"dtype": "float32"}}, "moving_mean_initializer": {"class_name": "Zeros", "config": {"dtype": "float32"}}, "moving_variance_initializer": {"class_name": "Ones", "config": {"dtype": "float32"}}, "beta_regularizer": null, "gamma_regularizer": null, "beta_constraint": null, "gamma_constraint": null}, "inbound_nodes": [[["conv2d_159", 0, 0, {}]]]}, {"name": "batch_normalization_140", "class_name": "BatchNormalization", "config": {"name": "batch_normalization_140", "trainable": true, "dtype": "float32", "axis": [3], "momentum": 0.99, "epsilon": 0.001, "center": true, "scale": true, "beta_initializer": {"class_name": "Zeros", "config": {"dtype": "float32"}}, "gamma_initializer": {"class_name": "Ones", "config": {"dtype": "float32"}}, "moving_mean_initializer": {"class_name": "Zeros", "config": {"dtype": "float32"}}, "moving_variance_initializer": {"class_name": "Ones", "config": {"dtype": "float32"}}, "beta_regularizer": null, "gamma_regularizer": null, "beta_constraint": null, "gamma_constraint": null}, "inbound_nodes": [[["conv2d_142", 0, 0, {}]]]}, {"name": "batch_normalization_141", "class_name": "BatchNormalization", "config": {"name": "batch_normalization_141", "trainable": true, "dtype": "float32", "axis": [3], "momentum": 0.99, "epsilon": 0.001, "center": true, "scale": true, "beta_initializer": {"class_name": "Zeros", "config": {"dtype": "float32"}}, "gamma_initializer": {"class_name": "Ones", "config": {"dtype": "float32"}}, "moving_mean_initializer": {"class_name": "Zeros", "config": {"dtype": "float32"}}, "moving_variance_initializer": {"class_name": "Ones", "config": {"dtype": "float32"}}, "beta_regularizer": null, "gamma_regularizer": null, "beta_constraint": null, "gamma_constraint": null}, "inbound_nodes": [[["conv2d_143", 0, 0, {}]]]}, {"name": "leaky_re_lu_157", "class_name": "LeakyReLU", "config": {"name": "leaky_re_lu_157", "trainable": true, "dtype": "float32", "alpha": 0.20000000298023224}, "inbound_nodes": [[["batch_normalization_157", 0, 0, {}]]]}, {"name": "leaky_re_lu_140", "class_name": "LeakyReLU", "config": {"name": "leaky_re_lu_140", "trainable": true, "dtype": "float32", "alpha": 0.20000000298023224}, "inbound_nodes": [[["batch_normalization_140", 0, 0, {}]]]}, {"name": "leaky_re_lu_141", "class_name": "LeakyReLU", "config": {"name": "leaky_re_lu_141", "trainable": true, "dtype": "float32", "alpha": 0.20000000298023224}, "inbound_nodes": [[["batch_normalization_141", 0, 0, {}]]]}, {"name": "conv2d_160", "class_name": "Conv2D", "config": {"name": "conv2d_160", "trainable": true, "dtype": "float32", "filters": 71, "kernel_size": [3, 3], "strides": [1, 1], "padding": "same", "data_format": "channels_last", "dilation_rate": [1, 1], "activation": "linear", "use_bias": true, "kernel_initializer": {"class_name": "VarianceScaling", "config": {"scale": 2.0, "mode": "fan_in", "distribution": "truncated_normal", "seed": null, "dtype": "float32"}}, "bias_initializer": {"class_name": "Zeros", "config": {"dtype": "float32"}}, "kernel_regularizer": null, "bias_regularizer": null, "activity_regularizer": null, "kernel_constraint": null, "bias_constraint": null}, "inbound_nodes": [[["leaky_re_lu_157", 0, 0, {}]]]}, {"name": "add_47", "class_name": "Add", "config": {"name": "add_47", "trainable": true, "dtype": "float32"}, "inbound_nodes": [[["leaky_re_lu_140", 0, 0, {}], ["leaky_re_lu_141", 0, 0, {}]]]}, {"name": "batch_normalization_158", "class_name": "BatchNormalization", "config": {"name": "batch_normalization_158", "trainable": true, "dtype": "float32", "axis": [3], "momentum": 0.99, "epsilon": 0.001, "center": true, "scale": true, "beta_initializer": {"class_name": "Zeros", "config": {"dtype": "float32"}}, "gamma_initializer": {"class_name": "Ones", "config": {"dtype": "float32"}}, "moving_mean_initializer": {"class_name": "Zeros", "config": {"dtype": "float32"}}, "moving_variance_initializer": {"class_name": "Ones", "config": {"dtype": "float32"}}, "beta_regularizer": null, "gamma_regularizer": null, "beta_constraint": null, "gamma_constraint": null}, "inbound_nodes": [[["conv2d_160", 0, 0, {}]]]}, {"name": "conv2d_144", "class_name": "Conv2D", "config": {"name": "conv2d_144", "trainable": true, "dtype": "float32", "filters": 64, "kernel_size": [3, 3], "strides": [1, 1], "padding": "same", "data_format": "channels_last", "dilation_rate": [1, 1], "activation": "linear", "use_bias": true, "kernel_initializer": {"class_name": "VarianceScaling", "config": {"scale": 2.0, "mode": "fan_in", "distribution": "truncated_normal", "seed": null, "dtype": "float32"}}, "bias_initializer": {"class_name": "Zeros", "config": {"dtype": "float32"}}, "kernel_regularizer": null, "bias_regularizer": null, "activity_regularizer": null, "kernel_constraint": null, "bias_constraint": null}, "inbound_nodes": [[["add_47", 0, 0, {}]]]}, {"name": "conv2d_145", "class_name": "Conv2D", "config": {"name": "conv2d_145", "trainable": true, "dtype": "float32", "filters": 64, "kernel_size": [1, 1], "strides": [1, 1], "padding": "same", "data_format": "channels_last", "dilation_rate": [1, 1], "activation": "linear", "use_bias": true, "kernel_initializer": {"class_name": "VarianceScaling", "config": {"scale": 2.0, "mode": "fan_in", "distribution": "truncated_normal", "seed": null, "dtype": "float32"}}, "bias_initializer": {"class_name": "Zeros", "config": {"dtype": "float32"}}, "kernel_regularizer": null, "bias_regularizer": null, "activity_regularizer": null, "kernel_constraint": null, "bias_constraint": null}, "inbound_nodes": [[["add_47", 0, 0, {}]]]}, {"name": "leaky_re_lu_158", "class_name": "LeakyReLU", "config": {"name": "leaky_re_lu_158", "trainable": true, "dtype": "float32", "alpha": 0.20000000298023224}, "inbound_nodes": [[["batch_normalization_158", 0, 0, {}]]]}, {"name": "batch_normalization_142", "class_name": "BatchNormalization", "config": {"name": "batch_normalization_142", "trainable": true, "dtype": "float32", "axis": [3], "momentum": 0.99, "epsilon": 0.001, "center": true, "scale": true, "beta_initializer": {"class_name": "Zeros", "config": {"dtype": "float32"}}, "gamma_initializer": {"class_name": "Ones", "config": {"dtype": "float32"}}, "moving_mean_initializer": {"class_name": "Zeros", "config": {"dtype": "float32"}}, "moving_variance_initializer": {"class_name": "Ones", "config": {"dtype": "float32"}}, "beta_regularizer": null, "gamma_regularizer": null, "beta_constraint": null, "gamma_constraint": null}, "inbound_nodes": [[["conv2d_144", 0, 0, {}]]]}, {"name": "batch_normalization_143", "class_name": "BatchNormalization", "config": {"name": "batch_normalization_143", "trainable": true, "dtype": "float32", "axis": [3], "momentum": 0.99, "epsilon": 0.001, "center": true, "scale": true, "beta_initializer": {"class_name": "Zeros", "config": {"dtype": "float32"}}, "gamma_initializer": {"class_name": "Ones", "config": {"dtype": "float32"}}, "moving_mean_initializer": {"class_name": "Zeros", "config": {"dtype": "float32"}}, "moving_variance_initializer": {"class_name": "Ones", "config": {"dtype": "float32"}}, "beta_regularizer": null, "gamma_regularizer": null, "beta_constraint": null, "gamma_constraint": null}, "inbound_nodes": [[["conv2d_145", 0, 0, {}]]]}, {"name": "conv2d_161", "class_name": "Conv2D", "config": {"name": "conv2d_161", "trainable": true, "dtype": "float32", "filters": 106, "kernel_size": [3, 3], "strides": [1, 1], "padding": "same", "data_format": "channels_last", "dilation_rate": [1, 1], "activation": "linear", "use_bias": true, "kernel_initializer": {"class_name": "VarianceScaling", "config": {"scale": 2.0, "mode": "fan_in", "distribution": "truncated_normal", "seed": null, "dtype": "float32"}}, "bias_initializer": {"class_name": "Zeros", "config": {"dtype": "float32"}}, "kernel_regularizer": null, "bias_regularizer": null, "activity_regularizer": null, "kernel_constraint": null, "bias_constraint": null}, "inbound_nodes": [[["leaky_re_lu_158", 0, 0, {}]]]}, {"name": "leaky_re_lu_142", "class_name": "LeakyReLU", "config": {"name": "leaky_re_lu_142", "trainable": true, "dtype": "float32", "alpha": 0.20000000298023224}, "inbound_nodes": [[["batch_normalization_142", 0, 0, {}]]]}, {"name": "leaky_re_lu_143", "class_name": "LeakyReLU", "config": {"name": "leaky_re_lu_143", "trainable": true, "dtype": "float32", "alpha": 0.20000000298023224}, "inbound_nodes": [[["batch_normalization_143", 0, 0, {}]]]}, {"name": "batch_normalization_159", "class_name": "BatchNormalization", "config": {"name": "batch_normalization_159", "trainable": true, "dtype": "float32", "axis": [3], "momentum": 0.99, "epsilon": 0.001, "center": true, "scale": true, "beta_initializer": {"class_name": "Zeros", "config": {"dtype": "float32"}}, "gamma_initializer": {"class_name": "Ones", "config": {"dtype": "float32"}}, "moving_mean_initializer": {"class_name": "Zeros", "config": {"dtype": "float32"}}, "moving_variance_initializer": {"class_name": "Ones", "config": {"dtype": "float32"}}, "beta_regularizer": null, "gamma_regularizer": null, "beta_constraint": null, "gamma_constraint": null}, "inbound_nodes": [[["conv2d_161", 0, 0, {}]]]}, {"name": "conv2d_158", "class_name": "Conv2D", "config": {"name": "conv2d_158", "trainable": true, "dtype": "float32", "filters": 212, "kernel_size": [1, 1], "strides": [1, 1], "padding": "same", "data_format": "channels_last", "dilation_rate": [1, 1], "activation": "linear", "use_bias": true, "kernel_initializer": {"class_name": "VarianceScaling", "config": {"scale": 2.0, "mode": "fan_in", "distribution": "truncated_normal", "seed": null, "dtype": "float32"}}, "bias_initializer": {"class_name": "Zeros", "config": {"dtype": "float32"}}, "kernel_regularizer": null, "bias_regularizer": null, "activity_regularizer": null, "kernel_constraint": null, "bias_constraint": null}, "inbound_nodes": [[["concatenate_33", 0, 0, {}]]]}, {"name": "add_48", "class_name": "Add", "config": {"name": "add_48", "trainable": true, "dtype": "float32"}, "inbound_nodes": [[["leaky_re_lu_142", 0, 0, {}], ["leaky_re_lu_143", 0, 0, {}]]]}, {"name": "leaky_re_lu_159", "class_name": "LeakyReLU", "config": {"name": "leaky_re_lu_159", "trainable": true, "dtype": "float32", "alpha": 0.20000000298023224}, "inbound_nodes": [[["batch_normalization_159", 0, 0, {}]]]}, {"name": "batch_normalization_156", "class_name": "BatchNormalization", "config": {"name": "batch_normalization_156", "trainable": true, "dtype": "float32", "axis": [3], "momentum": 0.99, "epsilon": 0.001, "center": true, "scale": true, "beta_initializer": {"class_name": "Zeros", "config": {"dtype": "float32"}}, "gamma_initializer": {"class_name": "Ones", "config": {"dtype": "float32"}}, "moving_mean_initializer": {"class_name": "Zeros", "config": {"dtype": "float32"}}, "moving_variance_initializer": {"class_name": "Ones", "config": {"dtype": "float32"}}, "beta_regularizer": null, "gamma_regularizer": null, "beta_constraint": null, "gamma_constraint": null}, "inbound_nodes": [[["conv2d_158", 0, 0, {}]]]}, {"name": "conv2d_146", "class_name": "Conv2D", "config": {"name": "conv2d_146", "trainable": true, "dtype": "float32", "filters": 64, "kernel_size": [3, 3], "strides": [1, 1], "padding": "same", "data_format": "channels_last", "dilation_rate": [1, 1], "activation": "linear", "use_bias": true, "kernel_initializer": {"class_name": "VarianceScaling", "config": {"scale": 2.0, "mode": "fan_in", "distribution": "truncated_normal", "seed": null, "dtype": "float32"}}, "bias_initializer": {"class_name": "Zeros", "config": {"dtype": "float32"}}, "kernel_regularizer": null, "bias_regularizer": null, "activity_regularizer": null, "kernel_constraint": null, "bias_constraint": null}, "inbound_nodes": [[["add_48", 0, 0, {}]]]}, {"name": "conv2d_147", "class_name": "Conv2D", "config": {"name": "conv2d_147", "trainable": true, "dtype": "float32", "filters": 64, "kernel_size": [1, 1], "strides": [1, 1], "padding": "same", "data_format": "channels_last", "dilation_rate": [1, 1], "activation": "linear", "use_bias": true, "kernel_initializer": {"class_name": "VarianceScaling", "config": {"scale": 2.0, "mode": "fan_in", "distribution": "truncated_normal", "seed": null, "dtype": "float32"}}, "bias_initializer": {"class_name": "Zeros", "config": {"dtype": "float32"}}, "kernel_regularizer": null, "bias_regularizer": null, "activity_regularizer": null, "kernel_constraint": null, "bias_constraint": null}, "inbound_nodes": [[["add_48", 0, 0, {}]]]}, {"name": "concatenate_34", "class_name": "Concatenate", "config": {"name": "concatenate_34", "trainable": true, "dtype": "float32", "axis": -1}, "inbound_nodes": [[["leaky_re_lu_157", 0, 0, {}], ["leaky_re_lu_158", 0, 0, {}], ["leaky_re_lu_159", 0, 0, {}]]]}, {"name": "leaky_re_lu_156", "class_name": "LeakyReLU", "config": {"name": "leaky_re_lu_156", "trainable": true, "dtype": "float32", "alpha": 0.20000000298023224}, "inbound_nodes": [[["batch_normalization_156", 0, 0, {}]]]}, {"name": "batch_normalization_144", "class_name": "BatchNormalization", "config": {"name": "batch_normalization_144", "trainable": true, "dtype": "float32", "axis": [3], "momentum": 0.99, "epsilon": 0.001, "center": true, "scale": true, "beta_initializer": {"class_name": "Zeros", "config": {"dtype": "float32"}}, "gamma_initializer": {"class_name": "Ones", "config": {"dtype": "float32"}}, "moving_mean_initializer": {"class_name": "Zeros", "config": {"dtype": "float32"}}, "moving_variance_initializer": {"class_name": "Ones", "config": {"dtype": "float32"}}, "beta_regularizer": null, "gamma_regularizer": null, "beta_constraint": null, "gamma_constraint": null}, "inbound_nodes": [[["conv2d_146", 0, 0, {}]]]}, {"name": "batch_normalization_145", "class_name": "BatchNormalization", "config": {"name": "batch_normalization_145", "trainable": true, "dtype": "float32", "axis": [3], "momentum": 0.99, "epsilon": 0.001, "center": true, "scale": true, "beta_initializer": {"class_name": "Zeros", "config": {"dtype": "float32"}}, "gamma_initializer": {"class_name": "Ones", "config": {"dtype": "float32"}}, "moving_mean_initializer": {"class_name": "Zeros", "config": {"dtype": "float32"}}, "moving_variance_initializer": {"class_name": "Ones", "config": {"dtype": "float32"}}, "beta_regularizer": null, "gamma_regularizer": null, "beta_constraint": null, "gamma_constraint": null}, "inbound_nodes": [[["conv2d_147", 0, 0, {}]]]}, {"name": "conv2d_134", "class_name": "Conv2D", "config": {"name": "conv2d_134", "trainable": true, "dtype": "float32", "filters": 32, "kernel_size": [3, 3], "strides": [1, 1], "padding": "same", "data_format": "channels_last", "dilation_rate": [1, 1], "activation": "linear", "use_bias": true, "kernel_initializer": {"class_name": "VarianceScaling", "config": {"scale": 2.0, "mode": "fan_in", "distribution": "truncated_normal", "seed": null, "dtype": "float32"}}, "bias_initializer": {"class_name": "Zeros", "config": {"dtype": "float32"}}, "kernel_regularizer": null, "bias_regularizer": null, "activity_regularizer": null, "kernel_constraint": null, "bias_constraint": null}, "inbound_nodes": [[["add_38", 0, 0, {}]]]}, {"name": "conv2d_135", "class_name": "Conv2D", "config": {"name": "conv2d_135", "trainable": true, "dtype": "float32", "filters": 32, "kernel_size": [1, 1], "strides": [1, 1], "padding": "same", "data_format": "channels_last", "dilation_rate": [1, 1], "activation": "linear", "use_bias": true, "kernel_initializer": {"class_name": "VarianceScaling", "config": {"scale": 2.0, "mode": "fan_in", "distribution": "truncated_normal", "seed": null, "dtype": "float32"}}, "bias_initializer": {"class_name": "Zeros", "config": {"dtype": "float32"}}, "kernel_regularizer": null, "bias_regularizer": null, "activity_regularizer": null, "kernel_constraint": null, "bias_constraint": null}, "inbound_nodes": [[["add_38", 0, 0, {}]]]}, {"name": "add_54", "class_name": "Add", "config": {"name": "add_54", "trainable": true, "dtype": "float32"}, "inbound_nodes": [[["concatenate_34", 0, 0, {}], ["leaky_re_lu_156", 0, 0, {}]]]}, {"name": "leaky_re_lu_144", "class_name": "LeakyReLU", "config": {"name": "leaky_re_lu_144", "trainable": true, "dtype": "float32", "alpha": 0.20000000298023224}, "inbound_nodes": [[["batch_normalization_144", 0, 0, {}]]]}, {"name": "leaky_re_lu_145", "class_name": "LeakyReLU", "config": {"name": "leaky_re_lu_145", "trainable": true, "dtype": "float32", "alpha": 0.20000000298023224}, "inbound_nodes": [[["batch_normalization_145", 0, 0, {}]]]}, {"name": "batch_normalization_132", "class_name": "BatchNormalization", "config": {"name": "batch_normalization_132", "trainable": true, "dtype": "float32", "axis": [3], "momentum": 0.99, "epsilon": 0.001, "center": true, "scale": true, "beta_initializer": {"class_name": "Zeros", "config": {"dtype": "float32"}}, "gamma_initializer": {"class_name": "Ones", "config": {"dtype": "float32"}}, "moving_mean_initializer": {"class_name": "Zeros", "config": {"dtype": "float32"}}, "moving_variance_initializer": {"class_name": "Ones", "config": {"dtype": "float32"}}, "beta_regularizer": null, "gamma_regularizer": null, "beta_constraint": null, "gamma_constraint": null}, "inbound_nodes": [[["conv2d_134", 0, 0, {}]]]}, {"name": "batch_normalization_133", "class_name": "BatchNormalization", "config": {"name": "batch_normalization_133", "trainable": true, "dtype": "float32", "axis": [3], "momentum": 0.99, "epsilon": 0.001, "center": true, "scale": true, "beta_initializer": {"class_name": "Zeros", "config": {"dtype": "float32"}}, "gamma_initializer": {"class_name": "Ones", "config": {"dtype": "float32"}}, "moving_mean_initializer": {"class_name": "Zeros", "config": {"dtype": "float32"}}, "moving_variance_initializer": {"class_name": "Ones", "config": {"dtype": "float32"}}, "beta_regularizer": null, "gamma_regularizer": null, "beta_constraint": null, "gamma_constraint": null}, "inbound_nodes": [[["conv2d_135", 0, 0, {}]]]}, {"name": "conv2d_transpose_10", "class_name": "Conv2DTranspose", "config": {"name": "conv2d_transpose_10", "trainable": true, "dtype": "float32", "filters": 64, "kernel_size": [2, 2], "strides": [2, 2], "padding": "same", "data_format": "channels_last", "dilation_rate": [1, 1], "activation": "linear", "use_bias": true, "kernel_initializer": {"class_name": "GlorotUniform", "config": {"seed": null, "dtype": "float32"}}, "bias_initializer": {"class_name": "Zeros", "config": {"dtype": "float32"}}, "kernel_regularizer": null, "bias_regularizer": null, "activity_regularizer": null, "kernel_constraint": null, "bias_constraint": null}, "inbound_nodes": [[["add_54", 0, 0, {}]]]}, {"name": "add_49", "class_name": "Add", "config": {"name": "add_49", "trainable": true, "dtype": "float32"}, "inbound_nodes": [[["leaky_re_lu_144", 0, 0, {}], ["leaky_re_lu_145", 0, 0, {}]]]}, {"name": "leaky_re_lu_132", "class_name": "LeakyReLU", "config": {"name": "leaky_re_lu_132", "trainable": true, "dtype": "float32", "alpha": 0.20000000298023224}, "inbound_nodes": [[["batch_normalization_132", 0, 0, {}]]]}, {"name": "leaky_re_lu_133", "class_name": "LeakyReLU", "config": {"name": "leaky_re_lu_133", "trainable": true, "dtype": "float32", "alpha": 0.20000000298023224}, "inbound_nodes": [[["batch_normalization_133", 0, 0, {}]]]}, {"name": "concatenate_35", "class_name": "Concatenate", "config": {"name": "concatenate_35", "trainable": true, "dtype": "float32", "axis": -1}, "inbound_nodes": [[["conv2d_transpose_10", 0, 0, {}], ["add_49", 0, 0, {}]]]}, {"name": "add_43", "class_name": "Add", "config": {"name": "add_43", "trainable": true, "dtype": "float32"}, "inbound_nodes": [[["leaky_re_lu_132", 0, 0, {}], ["leaky_re_lu_133", 0, 0, {}]]]}, {"name": "conv2d_163", "class_name": "Conv2D", "config": {"name": "conv2d_163", "trainable": true, "dtype": "float32", "filters": 17, "kernel_size": [3, 3], "strides": [1, 1], "padding": "same", "data_format": "channels_last", "dilation_rate": [1, 1], "activation": "linear", "use_bias": true, "kernel_initializer": {"class_name": "VarianceScaling", "config": {"scale": 2.0, "mode": "fan_in", "distribution": "truncated_normal", "seed": null, "dtype": "float32"}}, "bias_initializer": {"class_name": "Zeros", "config": {"dtype": "float32"}}, "kernel_regularizer": null, "bias_regularizer": null, "activity_regularizer": null, "kernel_constraint": null, "bias_constraint": null}, "inbound_nodes": [[["concatenate_35", 0, 0, {}]]]}, {"name": "conv2d_136", "class_name": "Conv2D", "config": {"name": "conv2d_136", "trainable": true, "dtype": "float32", "filters": 32, "kernel_size": [3, 3], "strides": [1, 1], "padding": "same", "data_format": "channels_last", "dilation_rate": [1, 1], "activation": "linear", "use_bias": true, "kernel_initializer": {"class_name": "VarianceScaling", "config": {"scale": 2.0, "mode": "fan_in", "distribution": "truncated_normal", "seed": null, "dtype": "float32"}}, "bias_initializer": {"class_name": "Zeros", "config": {"dtype": "float32"}}, "kernel_regularizer": null, "bias_regularizer": null, "activity_regularizer": null, "kernel_constraint": null, "bias_constraint": null}, "inbound_nodes": [[["add_43", 0, 0, {}]]]}, {"name": "conv2d_137", "class_name": "Conv2D", "config": {"name": "conv2d_137", "trainable": true, "dtype": "float32", "filters": 32, "kernel_size": [1, 1], "strides": [1, 1], "padding": "same", "data_format": "channels_last", "dilation_rate": [1, 1], "activation": "linear", "use_bias": true, "kernel_initializer": {"class_name": "VarianceScaling", "config": {"scale": 2.0, "mode": "fan_in", "distribution": "truncated_normal", "seed": null, "dtype": "float32"}}, "bias_initializer": {"class_name": "Zeros", "config": {"dtype": "float32"}}, "kernel_regularizer": null, "bias_regularizer": null, "activity_regularizer": null, "kernel_constraint": null, "bias_constraint": null}, "inbound_nodes": [[["add_43", 0, 0, {}]]]}, {"name": "batch_normalization_161", "class_name": "BatchNormalization", "config": {"name": "batch_normalization_161", "trainable": true, "dtype": "float32", "axis": [3], "momentum": 0.99, "epsilon": 0.001, "center": true, "scale": true, "beta_initializer": {"class_name": "Zeros", "config": {"dtype": "float32"}}, "gamma_initializer": {"class_name": "Ones", "config": {"dtype": "float32"}}, "moving_mean_initializer": {"class_name": "Zeros", "config": {"dtype": "float32"}}, "moving_variance_initializer": {"class_name": "Ones", "config": {"dtype": "float32"}}, "beta_regularizer": null, "gamma_regularizer": null, "beta_constraint": null, "gamma_constraint": null}, "inbound_nodes": [[["conv2d_163", 0, 0, {}]]]}, {"name": "batch_normalization_134", "class_name": "BatchNormalization", "config": {"name": "batch_normalization_134", "trainable": true, "dtype": "float32", "axis": [3], "momentum": 0.99, "epsilon": 0.001, "center": true, "scale": true, "beta_initializer": {"class_name": "Zeros", "config": {"dtype": "float32"}}, "gamma_initializer": {"class_name": "Ones", "config": {"dtype": "float32"}}, "moving_mean_initializer": {"class_name": "Zeros", "config": {"dtype": "float32"}}, "moving_variance_initializer": {"class_name": "Ones", "config": {"dtype": "float32"}}, "beta_regularizer": null, "gamma_regularizer": null, "beta_constraint": null, "gamma_constraint": null}, "inbound_nodes": [[["conv2d_136", 0, 0, {}]]]}, {"name": "batch_normalization_135", "class_name": "BatchNormalization", "config": {"name": "batch_normalization_135", "trainable": true, "dtype": "float32", "axis": [3], "momentum": 0.99, "epsilon": 0.001, "center": true, "scale": true, "beta_initializer": {"class_name": "Zeros", "config": {"dtype": "float32"}}, "gamma_initializer": {"class_name": "Ones", "config": {"dtype": "float32"}}, "moving_mean_initializer": {"class_name": "Zeros", "config": {"dtype": "float32"}}, "moving_variance_initializer": {"class_name": "Ones", "config": {"dtype": "float32"}}, "beta_regularizer": null, "gamma_regularizer": null, "beta_constraint": null, "gamma_constraint": null}, "inbound_nodes": [[["conv2d_137", 0, 0, {}]]]}, {"name": "leaky_re_lu_161", "class_name": "LeakyReLU", "config": {"name": "leaky_re_lu_161", "trainable": true, "dtype": "float32", "alpha": 0.20000000298023224}, "inbound_nodes": [[["batch_normalization_161", 0, 0, {}]]]}, {"name": "leaky_re_lu_134", "class_name": "LeakyReLU", "config": {"name": "leaky_re_lu_134", "trainable": true, "dtype": "float32", "alpha": 0.20000000298023224}, "inbound_nodes": [[["batch_normalization_134", 0, 0, {}]]]}, {"name": "leaky_re_lu_135", "class_name": "LeakyReLU", "config": {"name": "leaky_re_lu_135", "trainable": true, "dtype": "float32", "alpha": 0.20000000298023224}, "inbound_nodes": [[["batch_normalization_135", 0, 0, {}]]]}, {"name": "conv2d_164", "class_name": "Conv2D", "config": {"name": "conv2d_164", "trainable": true, "dtype": "float32", "filters": 35, "kernel_size": [3, 3], "strides": [1, 1], "padding": "same", "data_format": "channels_last", "dilation_rate": [1, 1], "activation": "linear", "use_bias": true, "kernel_initializer": {"class_name": "VarianceScaling", "config": {"scale": 2.0, "mode": "fan_in", "distribution": "truncated_normal", "seed": null, "dtype": "float32"}}, "bias_initializer": {"class_name": "Zeros", "config": {"dtype": "float32"}}, "kernel_regularizer": null, "bias_regularizer": null, "activity_regularizer": null, "kernel_constraint": null, "bias_constraint": null}, "inbound_nodes": [[["leaky_re_lu_161", 0, 0, {}]]]}, {"name": "add_44", "class_name": "Add", "config": {"name": "add_44", "trainable": true, "dtype": "float32"}, "inbound_nodes": [[["leaky_re_lu_134", 0, 0, {}], ["leaky_re_lu_135", 0, 0, {}]]]}, {"name": "batch_normalization_162", "class_name": "BatchNormalization", "config": {"name": "batch_normalization_162", "trainable": true, "dtype": "float32", "axis": [3], "momentum": 0.99, "epsilon": 0.001, "center": true, "scale": true, "beta_initializer": {"class_name": "Zeros", "config": {"dtype": "float32"}}, "gamma_initializer": {"class_name": "Ones", "config": {"dtype": "float32"}}, "moving_mean_initializer": {"class_name": "Zeros", "config": {"dtype": "float32"}}, "moving_variance_initializer": {"class_name": "Ones", "config": {"dtype": "float32"}}, "beta_regularizer": null, "gamma_regularizer": null, "beta_constraint": null, "gamma_constraint": null}, "inbound_nodes": [[["conv2d_164", 0, 0, {}]]]}, {"name": "conv2d_138", "class_name": "Conv2D", "config": {"name": "conv2d_138", "trainable": true, "dtype": "float32", "filters": 32, "kernel_size": [3, 3], "strides": [1, 1], "padding": "same", "data_format": "channels_last", "dilation_rate": [1, 1], "activation": "linear", "use_bias": true, "kernel_initializer": {"class_name": "VarianceScaling", "config": {"scale": 2.0, "mode": "fan_in", "distribution": "truncated_normal", "seed": null, "dtype": "float32"}}, "bias_initializer": {"class_name": "Zeros", "config": {"dtype": "float32"}}, "kernel_regularizer": null, "bias_regularizer": null, "activity_regularizer": null, "kernel_constraint": null, "bias_constraint": null}, "inbound_nodes": [[["add_44", 0, 0, {}]]]}, {"name": "conv2d_139", "class_name": "Conv2D", "config": {"name": "conv2d_139", "trainable": true, "dtype": "float32", "filters": 32, "kernel_size": [1, 1], "strides": [1, 1], "padding": "same", "data_format": "channels_last", "dilation_rate": [1, 1], "activation": "linear", "use_bias": true, "kernel_initializer": {"class_name": "VarianceScaling", "config": {"scale": 2.0, "mode": "fan_in", "distribution": "truncated_normal", "seed": null, "dtype": "float32"}}, "bias_initializer": {"class_name": "Zeros", "config": {"dtype": "float32"}}, "kernel_regularizer": null, "bias_regularizer": null, "activity_regularizer": null, "kernel_constraint": null, "bias_constraint": null}, "inbound_nodes": [[["add_44", 0, 0, {}]]]}, {"name": "leaky_re_lu_162", "class_name": "LeakyReLU", "config": {"name": "leaky_re_lu_162", "trainable": true, "dtype": "float32", "alpha": 0.20000000298023224}, "inbound_nodes": [[["batch_normalization_162", 0, 0, {}]]]}, {"name": "batch_normalization_136", "class_name": "BatchNormalization", "config": {"name": "batch_normalization_136", "trainable": true, "dtype": "float32", "axis": [3], "momentum": 0.99, "epsilon": 0.001, "center": true, "scale": true, "beta_initializer": {"class_name": "Zeros", "config": {"dtype": "float32"}}, "gamma_initializer": {"class_name": "Ones", "config": {"dtype": "float32"}}, "moving_mean_initializer": {"class_name": "Zeros", "config": {"dtype": "float32"}}, "moving_variance_initializer": {"class_name": "Ones", "config": {"dtype": "float32"}}, "beta_regularizer": null, "gamma_regularizer": null, "beta_constraint": null, "gamma_constraint": null}, "inbound_nodes": [[["conv2d_138", 0, 0, {}]]]}, {"name": "batch_normalization_137", "class_name": "BatchNormalization", "config": {"name": "batch_normalization_137", "trainable": true, "dtype": "float32", "axis": [3], "momentum": 0.99, "epsilon": 0.001, "center": true, "scale": true, "beta_initializer": {"class_name": "Zeros", "config": {"dtype": "float32"}}, "gamma_initializer": {"class_name": "Ones", "config": {"dtype": "float32"}}, "moving_mean_initializer": {"class_name": "Zeros", "config": {"dtype": "float32"}}, "moving_variance_initializer": {"class_name": "Ones", "config": {"dtype": "float32"}}, "beta_regularizer": null, "gamma_regularizer": null, "beta_constraint": null, "gamma_constraint": null}, "inbound_nodes": [[["conv2d_139", 0, 0, {}]]]}, {"name": "conv2d_165", "class_name": "Conv2D", "config": {"name": "conv2d_165", "trainable": true, "dtype": "float32", "filters": 53, "kernel_size": [3, 3], "strides": [1, 1], "padding": "same", "data_format": "channels_last", "dilation_rate": [1, 1], "activation": "linear", "use_bias": true, "kernel_initializer": {"class_name": "VarianceScaling", "config": {"scale": 2.0, "mode": "fan_in", "distribution": "truncated_normal", "seed": null, "dtype": "float32"}}, "bias_initializer": {"class_name": "Zeros", "config": {"dtype": "float32"}}, "kernel_regularizer": null, "bias_regularizer": null, "activity_regularizer": null, "kernel_constraint": null, "bias_constraint": null}, "inbound_nodes": [[["leaky_re_lu_162", 0, 0, {}]]]}, {"name": "leaky_re_lu_136", "class_name": "LeakyReLU", "config": {"name": "leaky_re_lu_136", "trainable": true, "dtype": "float32", "alpha": 0.20000000298023224}, "inbound_nodes": [[["batch_normalization_136", 0, 0, {}]]]}, {"name": "leaky_re_lu_137", "class_name": "LeakyReLU", "config": {"name": "leaky_re_lu_137", "trainable": true, "dtype": "float32", "alpha": 0.20000000298023224}, "inbound_nodes": [[["batch_normalization_137", 0, 0, {}]]]}, {"name": "batch_normalization_163", "class_name": "BatchNormalization", "config": {"name": "batch_normalization_163", "trainable": true, "dtype": "float32", "axis": [3], "momentum": 0.99, "epsilon": 0.001, "center": true, "scale": true, "beta_initializer": {"class_name": "Zeros", "config": {"dtype": "float32"}}, "gamma_initializer": {"class_name": "Ones", "config": {"dtype": "float32"}}, "moving_mean_initializer": {"class_name": "Zeros", "config": {"dtype": "float32"}}, "moving_variance_initializer": {"class_name": "Ones", "config": {"dtype": "float32"}}, "beta_regularizer": null, "gamma_regularizer": null, "beta_constraint": null, "gamma_constraint": null}, "inbound_nodes": [[["conv2d_165", 0, 0, {}]]]}, {"name": "conv2d_162", "class_name": "Conv2D", "config": {"name": "conv2d_162", "trainable": true, "dtype": "float32", "filters": 105, "kernel_size": [1, 1], "strides": [1, 1], "padding": "same", "data_format": "channels_last", "dilation_rate": [1, 1], "activation": "linear", "use_bias": true, "kernel_initializer": {"class_name": "VarianceScaling", "config": {"scale": 2.0, "mode": "fan_in", "distribution": "truncated_normal", "seed": null, "dtype": "float32"}}, "bias_initializer": {"class_name": "Zeros", "config": {"dtype": "float32"}}, "kernel_regularizer": null, "bias_regularizer": null, "activity_regularizer": null, "kernel_constraint": null, "bias_constraint": null}, "inbound_nodes": [[["concatenate_35", 0, 0, {}]]]}, {"name": "add_45", "class_name": "Add", "config": {"name": "add_45", "trainable": true, "dtype": "float32"}, "inbound_nodes": [[["leaky_re_lu_136", 0, 0, {}], ["leaky_re_lu_137", 0, 0, {}]]]}, {"name": "leaky_re_lu_163", "class_name": "LeakyReLU", "config": {"name": "leaky_re_lu_163", "trainable": true, "dtype": "float32", "alpha": 0.20000000298023224}, "inbound_nodes": [[["batch_normalization_163", 0, 0, {}]]]}, {"name": "batch_normalization_160", "class_name": "BatchNormalization", "config": {"name": "batch_normalization_160", "trainable": true, "dtype": "float32", "axis": [3], "momentum": 0.99, "epsilon": 0.001, "center": true, "scale": true, "beta_initializer": {"class_name": "Zeros", "config": {"dtype": "float32"}}, "gamma_initializer": {"class_name": "Ones", "config": {"dtype": "float32"}}, "moving_mean_initializer": {"class_name": "Zeros", "config": {"dtype": "float32"}}, "moving_variance_initializer": {"class_name": "Ones", "config": {"dtype": "float32"}}, "beta_regularizer": null, "gamma_regularizer": null, "beta_constraint": null, "gamma_constraint": null}, "inbound_nodes": [[["conv2d_162", 0, 0, {}]]]}, {"name": "conv2d_140", "class_name": "Conv2D", "config": {"name": "conv2d_140", "trainable": true, "dtype": "float32", "filters": 32, "kernel_size": [3, 3], "strides": [1, 1], "padding": "same", "data_format": "channels_last", "dilation_rate": [1, 1], "activation": "linear", "use_bias": true, "kernel_initializer": {"class_name": "VarianceScaling", "config": {"scale": 2.0, "mode": "fan_in", "distribution": "truncated_normal", "seed": null, "dtype": "float32"}}, "bias_initializer": {"class_name": "Zeros", "config": {"dtype": "float32"}}, "kernel_regularizer": null, "bias_regularizer": null, "activity_regularizer": null, "kernel_constraint": null, "bias_constraint": null}, "inbound_nodes": [[["add_45", 0, 0, {}]]]}, {"name": "conv2d_141", "class_name": "Conv2D", "config": {"name": "conv2d_141", "trainable": true, "dtype": "float32", "filters": 32, "kernel_size": [1, 1], "strides": [1, 1], "padding": "same", "data_format": "channels_last", "dilation_rate": [1, 1], "activation": "linear", "use_bias": true, "kernel_initializer": {"class_name": "VarianceScaling", "config": {"scale": 2.0, "mode": "fan_in", "distribution": "truncated_normal", "seed": null, "dtype": "float32"}}, "bias_initializer": {"class_name": "Zeros", "config": {"dtype": "float32"}}, "kernel_regularizer": null, "bias_regularizer": null, "activity_regularizer": null, "kernel_constraint": null, "bias_constraint": null}, "inbound_nodes": [[["add_45", 0, 0, {}]]]}, {"name": "concatenate_36", "class_name": "Concatenate", "config": {"name": "concatenate_36", "trainable": true, "dtype": "float32", "axis": -1}, "inbound_nodes": [[["leaky_re_lu_161", 0, 0, {}], ["leaky_re_lu_162", 0, 0, {}], ["leaky_re_lu_163", 0, 0, {}]]]}, {"name": "leaky_re_lu_160", "class_name": "LeakyReLU", "config": {"name": "leaky_re_lu_160", "trainable": true, "dtype": "float32", "alpha": 0.20000000298023224}, "inbound_nodes": [[["batch_normalization_160", 0, 0, {}]]]}, {"name": "batch_normalization_138", "class_name": "BatchNormalization", "config": {"name": "batch_normalization_138", "trainable": true, "dtype": "float32", "axis": [3], "momentum": 0.99, "epsilon": 0.001, "center": true, "scale": true, "beta_initializer": {"class_name": "Zeros", "config": {"dtype": "float32"}}, "gamma_initializer": {"class_name": "Ones", "config": {"dtype": "float32"}}, "moving_mean_initializer": {"class_name": "Zeros", "config": {"dtype": "float32"}}, "moving_variance_initializer": {"class_name": "Ones", "config": {"dtype": "float32"}}, "beta_regularizer": null, "gamma_regularizer": null, "beta_constraint": null, "gamma_constraint": null}, "inbound_nodes": [[["conv2d_140", 0, 0, {}]]]}, {"name": "batch_normalization_139", "class_name": "BatchNormalization", "config": {"name": "batch_normalization_139", "trainable": true, "dtype": "float32", "axis": [3], "momentum": 0.99, "epsilon": 0.001, "center": true, "scale": true, "beta_initializer": {"class_name": "Zeros", "config": {"dtype": "float32"}}, "gamma_initializer": {"class_name": "Ones", "config": {"dtype": "float32"}}, "moving_mean_initializer": {"class_name": "Zeros", "config": {"dtype": "float32"}}, "moving_variance_initializer": {"class_name": "Ones", "config": {"dtype": "float32"}}, "beta_regularizer": null, "gamma_regularizer": null, "beta_constraint": null, "gamma_constraint": null}, "inbound_nodes": [[["conv2d_141", 0, 0, {}]]]}, {"name": "add_55", "class_name": "Add", "config": {"name": "add_55", "trainable": true, "dtype": "float32"}, "inbound_nodes": [[["concatenate_36", 0, 0, {}], ["leaky_re_lu_160", 0, 0, {}]]]}, {"name": "leaky_re_lu_138", "class_name": "LeakyReLU", "config": {"name": "leaky_re_lu_138", "trainable": true, "dtype": "float32", "alpha": 0.20000000298023224}, "inbound_nodes": [[["batch_normalization_138", 0, 0, {}]]]}, {"name": "leaky_re_lu_139", "class_name": "LeakyReLU", "config": {"name": "leaky_re_lu_139", "trainable": true, "dtype": "float32", "alpha": 0.20000000298023224}, "inbound_nodes": [[["batch_normalization_139", 0, 0, {}]]]}, {"name": "conv2d_transpose_11", "class_name": "Conv2DTranspose", "config": {"name": "conv2d_transpose_11", "trainable": true, "dtype": "float32", "filters": 32, "kernel_size": [2, 2], "strides": [2, 2], "padding": "same", "data_format": "channels_last", "dilation_rate": [1, 1], "activation": "linear", "use_bias": true, "kernel_initializer": {"class_name": "GlorotUniform", "config": {"seed": null, "dtype": "float32"}}, "bias_initializer": {"class_name": "Zeros", "config": {"dtype": "float32"}}, "kernel_regularizer": null, "bias_regularizer": null, "activity_regularizer": null, "kernel_constraint": null, "bias_constraint": null}, "inbound_nodes": [[["add_55", 0, 0, {}]]]}, {"name": "add_46", "class_name": "Add", "config": {"name": "add_46", "trainable": true, "dtype": "float32"}, "inbound_nodes": [[["leaky_re_lu_138", 0, 0, {}], ["leaky_re_lu_139", 0, 0, {}]]]}, {"name": "concatenate_37", "class_name": "Concatenate", "config": {"name": "concatenate_37", "trainable": true, "dtype": "float32", "axis": -1}, "inbound_nodes": [[["conv2d_transpose_11", 0, 0, {}], ["add_46", 0, 0, {}]]]}, {"name": "conv2d_167", "class_name": "Conv2D", "config": {"name": "conv2d_167", "trainable": true, "dtype": "float32", "filters": 8, "kernel_size": [3, 3], "strides": [1, 1], "padding": "same", "data_format": "channels_last", "dilation_rate": [1, 1], "activation": "linear", "use_bias": true, "kernel_initializer": {"class_name": "VarianceScaling", "config": {"scale": 2.0, "mode": "fan_in", "distribution": "truncated_normal", "seed": null, "dtype": "float32"}}, "bias_initializer": {"class_name": "Zeros", "config": {"dtype": "float32"}}, "kernel_regularizer": null, "bias_regularizer": null, "activity_regularizer": null, "kernel_constraint": null, "bias_constraint": null}, "inbound_nodes": [[["concatenate_37", 0, 0, {}]]]}, {"name": "batch_normalization_165", "class_name": "BatchNormalization", "config": {"name": "batch_normalization_165", "trainable": true, "dtype": "float32", "axis": [3], "momentum": 0.99, "epsilon": 0.001, "center": true, "scale": true, "beta_initializer": {"class_name": "Zeros", "config": {"dtype": "float32"}}, "gamma_initializer": {"class_name": "Ones", "config": {"dtype": "float32"}}, "moving_mean_initializer": {"class_name": "Zeros", "config": {"dtype": "float32"}}, "moving_variance_initializer": {"class_name": "Ones", "config": {"dtype": "float32"}}, "beta_regularizer": null, "gamma_regularizer": null, "beta_constraint": null, "gamma_constraint": null}, "inbound_nodes": [[["conv2d_167", 0, 0, {}]]]}, {"name": "leaky_re_lu_165", "class_name": "LeakyReLU", "config": {"name": "leaky_re_lu_165", "trainable": true, "dtype": "float32", "alpha": 0.20000000298023224}, "inbound_nodes": [[["batch_normalization_165", 0, 0, {}]]]}, {"name": "conv2d_168", "class_name": "Conv2D", "config": {"name": "conv2d_168", "trainable": true, "dtype": "float32", "filters": 17, "kernel_size": [3, 3], "strides": [1, 1], "padding": "same", "data_format": "channels_last", "dilation_rate": [1, 1], "activation": "linear", "use_bias": true, "kernel_initializer": {"class_name": "VarianceScaling", "config": {"scale": 2.0, "mode": "fan_in", "distribution": "truncated_normal", "seed": null, "dtype": "float32"}}, "bias_initializer": {"class_name": "Zeros", "config": {"dtype": "float32"}}, "kernel_regularizer": null, "bias_regularizer": null, "activity_regularizer": null, "kernel_constraint": null, "bias_constraint": null}, "inbound_nodes": [[["leaky_re_lu_165", 0, 0, {}]]]}, {"name": "batch_normalization_166", "class_name": "BatchNormalization", "config": {"name": "batch_normalization_166", "trainable": true, "dtype": "float32", "axis": [3], "momentum": 0.99, "epsilon": 0.001, "center": true, "scale": true, "beta_initializer": {"class_name": "Zeros", "config": {"dtype": "float32"}}, "gamma_initializer": {"class_name": "Ones", "config": {"dtype": "float32"}}, "moving_mean_initializer": {"class_name": "Zeros", "config": {"dtype": "float32"}}, "moving_variance_initializer": {"class_name": "Ones", "config": {"dtype": "float32"}}, "beta_regularizer": null, "gamma_regularizer": null, "beta_constraint": null, "gamma_constraint": null}, "inbound_nodes": [[["conv2d_168", 0, 0, {}]]]}, {"name": "leaky_re_lu_166", "class_name": "LeakyReLU", "config": {"name": "leaky_re_lu_166", "trainable": true, "dtype": "float32", "alpha": 0.20000000298023224}, "inbound_nodes": [[["batch_normalization_166", 0, 0, {}]]]}, {"name": "conv2d_169", "class_name": "Conv2D", "config": {"name": "conv2d_169", "trainable": true, "dtype": "float32", "filters": 26, "kernel_size": [3, 3], "strides": [1, 1], "padding": "same", "data_format": "channels_last", "dilation_rate": [1, 1], "activation": "linear", "use_bias": true, "kernel_initializer": {"class_name": "VarianceScaling", "config": {"scale": 2.0, "mode": "fan_in", "distribution": "truncated_normal", "seed": null, "dtype": "float32"}}, "bias_initializer": {"class_name": "Zeros", "config": {"dtype": "float32"}}, "kernel_regularizer": null, "bias_regularizer": null, "activity_regularizer": null, "kernel_constraint": null, "bias_constraint": null}, "inbound_nodes": [[["leaky_re_lu_166", 0, 0, {}]]]}, {"name": "batch_normalization_167", "class_name": "BatchNormalization", "config": {"name": "batch_normalization_167", "trainable": true, "dtype": "float32", "axis": [3], "momentum": 0.99, "epsilon": 0.001, "center": true, "scale": true, "beta_initializer": {"class_name": "Zeros", "config": {"dtype": "float32"}}, "gamma_initializer": {"class_name": "Ones", "config": {"dtype": "float32"}}, "moving_mean_initializer": {"class_name": "Zeros", "config": {"dtype": "float32"}}, "moving_variance_initializer": {"class_name": "Ones", "config": {"dtype": "float32"}}, "beta_regularizer": null, "gamma_regularizer": null, "beta_constraint": null, "gamma_constraint": null}, "inbound_nodes": [[["conv2d_169", 0, 0, {}]]]}, {"name": "conv2d_166", "class_name": "Conv2D", "config": {"name": "conv2d_166", "trainable": true, "dtype": "float32", "filters": 51, "kernel_size": [1, 1], "strides": [1, 1], "padding": "same", "data_format": "channels_last", "dilation_rate": [1, 1], "activation": "linear", "use_bias": true, "kernel_initializer": {"class_name": "VarianceScaling", "config": {"scale": 2.0, "mode": "fan_in", "distribution": "truncated_normal", "seed": null, "dtype": "float32"}}, "bias_initializer": {"class_name": "Zeros", "config": {"dtype": "float32"}}, "kernel_regularizer": null, "bias_regularizer": null, "activity_regularizer": null, "kernel_constraint": null, "bias_constraint": null}, "inbound_nodes": [[["concatenate_37", 0, 0, {}]]]}, {"name": "leaky_re_lu_167", "class_name": "LeakyReLU", "config": {"name": "leaky_re_lu_167", "trainable": true, "dtype": "float32", "alpha": 0.20000000298023224}, "inbound_nodes": [[["batch_normalization_167", 0, 0, {}]]]}, {"name": "batch_normalization_164", "class_name": "BatchNormalization", "config": {"name": "batch_normalization_164", "trainable": true, "dtype": "float32", "axis": [3], "momentum": 0.99, "epsilon": 0.001, "center": true, "scale": true, "beta_initializer": {"class_name": "Zeros", "config": {"dtype": "float32"}}, "gamma_initializer": {"class_name": "Ones", "config": {"dtype": "float32"}}, "moving_mean_initializer": {"class_name": "Zeros", "config": {"dtype": "float32"}}, "moving_variance_initializer": {"class_name": "Ones", "config": {"dtype": "float32"}}, "beta_regularizer": null, "gamma_regularizer": null, "beta_constraint": null, "gamma_constraint": null}, "inbound_nodes": [[["conv2d_166", 0, 0, {}]]]}, {"name": "concatenate_38", "class_name": "Concatenate", "config": {"name": "concatenate_38", "trainable": true, "dtype": "float32", "axis": -1}, "inbound_nodes": [[["leaky_re_lu_165", 0, 0, {}], ["leaky_re_lu_166", 0, 0, {}], ["leaky_re_lu_167", 0, 0, {}]]]}, {"name": "leaky_re_lu_164", "class_name": "LeakyReLU", "config": {"name": "leaky_re_lu_164", "trainable": true, "dtype": "float32", "alpha": 0.20000000298023224}, "inbound_nodes": [[["batch_normalization_164", 0, 0, {}]]]}, {"name": "add_56", "class_name": "Add", "config": {"name": "add_56", "trainable": true, "dtype": "float32"}, "inbound_nodes": [[["concatenate_38", 0, 0, {}], ["leaky_re_lu_164", 0, 0, {}]]]}, {"name": "conv2d_170", "class_name": "Conv2D", "config": {"name": "conv2d_170", "trainable": true, "dtype": "float32", "filters": 10, "kernel_size": [1, 1], "strides": [1, 1], "padding": "valid", "data_format": "channels_last", "dilation_rate": [1, 1], "activation": "linear", "use_bias": true, "kernel_initializer": {"class_name": "GlorotUniform", "config": {"seed": null, "dtype": "float32"}}, "bias_initializer": {"class_name": "Zeros", "config": {"dtype": "float32"}}, "kernel_regularizer": null, "bias_regularizer": null, "activity_regularizer": null, "kernel_constraint": null, "bias_constraint": null}, "inbound_nodes": [[["add_56", 0, 0, {}]]]}, {"name": "activation_2", "class_name": "Activation", "config": {"name": "activation_2", "trainable": true, "dtype": "float32", "activation": "softMaxAxis"}, "inbound_nodes": [[["conv2d_170", 0, 0, {}]]]}], "input_layers": [["input_3", 0, 0]], "output_layers": [["activation_2", 0, 0]]}, "keras_version": "2.2.4-tf", "backend": "tensorflow"}